results/checkpoint_critic.pth (torch_old, 549449 bytes, 9 tensors)

fcs1.weight f4 [400, 33]
-0.505868 0.7980564 -0.3769263 0.07735279 -0.27585772 -0.2564432 0.05575837 0.06225711
-0.29715717 -0.8945662 -0.39966175 -0.21561922 0.24818057 0.13578907 -0.61980075 -0.024370603
-0.11123409 0.1894288 0.4711864 -0.047028992 -0.27976146 0.56499803 0.06894593 -0.042631347
-0.43228978 -0.22103418 -0.012441836 -0.0014743949 0.17948295 -0.020203585 -0.009278422 0.03294867
0.6313749 -0.3563168 0.430517 0.024377247 -0.02194707 -0.18985268 0.24333325 0.034850758
0.14358746 0.25196475 0.4686462 -0.06832387 0.6315796 0.27158687 0.04659691 0.21256651
-0.05005146 0.1585252 -0.08389697 -0.10070139 -0.27765796 -0.42005968 -0.7132085 0.026399024
-0.15699948 -0.4279037 -0.123945825 0.30569118 0.04913806 0.31230593 -0.0067095384 0.0184764
-0.033955146 0.5066571 0.40189302 -0.1743545 -0.010607733 0.104285024 -0.16324447 0.7315073
-0.13104689 -0.15476105 -0.3743714 0.34006134 -0.06316881 0.08010911 -0.010560321 -0.37259874
0.66265464 0.25792098 0.2259288 -0.040857833 0.3492144 0.06131976 -0.06582504 -0.061062854
0.0795051 0.15931587 0.091735184 0.11858855 0.32855582 -0.033525176 -0.14472638 -0.048265822
-0.012815709 0.020780254 1.8101296 0.09173007 -0.47502497 0.13738231 -0.021469655 -0.032482527
-0.24833941 0.037382968 0.629495 0.2185105 -0.46986705 -0.368105 0.5205653 -0.5134591
-0.009065359 0.009597172 0.084363 0.54383016 0.124056965 -0.10907678 -0.15075204 -0.0733391
-0.8961912 0.691708 0.0786145 -0.29652795 0.13335769 -0.055868454 -0.031553224 -0.021892777
0.00054807216 -0.007919141 0.005086474 -0.34090152 0.05876867 0.11239698 0.29063013 -0.09081547
-0.21071517 -0.14773087 0.3588759 0.12055433 -0.070503056 -0.37921607 0.0822377 -0.21771356
-0.2815386 0.25624803 -0.060373135 -0.009514415 0.051545504 -0.06384087 0.060492553 -0.05851265
0.18119138 -0.19865404 0.116951615 0.23670831 0.05220408 0.24556674 -0.2720484 0.047617912
-0.35426098 -0.028172899 -0.00876613 -0.029598976 2.1258953 0.6191473 0.012652475 -1.1806675
0.14364979 0.15576778 -0.16882609 -0.34442273 0.11686528 0.008107776 0.14154588 0.38117114
0.01847638 -0.19627772 -0.0696572 0.36036277 0.025879404 -0.044578083 0.065445326 0.078933366
-0.44951057 -0.13462779 0.003764988 -0.1419243 -0.0015510719 -0.024942908 0.02994022 -0.39798486
-0.026511434 0.2671669 -0.0040653944 0.021151068 0.030225012 0.011024695 -0.15788853 0.2535772
-0.8085652 -0.1126689 0.20016713 -0.16083853 -0.23063578 0.078081205 -0.73315173 0.20886205
0.16016361 0.0030684588 -0.14961533 -0.90291023 -0.60903674 0.22453122 0.02783057 0.1655966
0.10899841 -0.036214747 -0.021860309 0.12204858 0.13333055 0.01854005 -0.09588579 0.08022664
-0.14683276 -0.049487118 0.026203943 0.0427855 -0.02918245 0.037589367 -1.092295 -0.069311745
0.3933959 0.2362529 0.1982458 0.05858791 0.20411316 0.23700145 0.22261582 0.29741228
0.3452744 0.032521013 -0.32410517 0.49505937 -0.51027596 -0.24449547 -0.40828806 -0.031231355
0.0049746223 0.02860752 -0.038943265 -0.35049498 -0.3888693 -0.15424155 -0.42006359 0.2638707
00000000: 9180 01bf 6d4d 4c3f 7cfc c0be 246b 9e3d
00000010: 393d 8dbe 864c 83be e362 643d 5001 7f3d
00000020: fc24 98be 4a02 65bf 77a0 ccbe 49cb 5cbe
00000030: 0c23 7e3e 4a0c 0b3e 43ab 1ebf dca4 c7bc
00000040: b3ce e3bd a0f9 413e 583f f13e 79a1 40bd
00000050: e53c 8fbe b6a3 103f 8633 8d3d 359e 2ebd
00000060: 1655 ddbe c956 62be d8d8 4bbc 7c40 c1ba
00000070: 61ca 373e fd81 a5bc 8604 18bc 2ff5 063d
00000080: c9a1 213f 286f b6be b96c dc3e cbb2 c73c
00000090: 57ca b3bc be68 42be 5a2c 793e abbf 0e3d
000000a0: 9708 133e 8601 813e 65f2 ef3e 63ed 8bbd
000000b0: 33af 213f 6f0d 8b3e 67dc 3e3d 09ab 593e
000000c0: c202 4dbd 6e54 223e 2dd2 abbd 883c cebd
000000d0: 2f29 8ebe 1012 d7be d594 36bf c442 d83c
000000e0: 79c4 20be 3216 dbbe 4fd7 fdbd 8e83 9c3e
000000f0: fe44 493d 90e6 9f3e b0db dbbb d25b 973c
00000100: 8d14 0bbd 48b4 013f ecc4 cd3e fc89 32be
00000110: 0fcc 2dbc 6393 d53d 8f29 27be 1044 3b3f
00000120: 2831 06be ae79 1ebe 9cad bfbe 851c ae3e
00000130: a65e 81bd 3f10 a43d 3205 2dbc 43c5 bebe
00000140: bca3 293f 380e 843e e159 673e 8b5a 27bd
00000150: 3bcc b23e 6e2a 7b3d 47cf 86bd 0b1d 7abd
00000160: 92d3 a23d b323 233e a8df bb3d 8ede f23d
00000170: 7838 a83e b251 09bd 2733 14be 62b2 45bd
00000180: fbf8 51bc 5a3b aa3c 54b2 e73f fadc bb3d
00000190: 7936 f3be f3ad 0c3e 21e1 afbc 660c 05bd
000001a0: b04c 7ebe e21e 193d 9626 213f 37c1 5f3e
000001b0: 6a92 f0be 4278 bcbe c443 053f 0e72 03bf
000001c0: df86 14bc 753d 1d3c 82c6 ac3d 7438 0b3f
000001d0: 9411 fe3d a663 dfbd be5e 1abe cf32 96bd
000001e0: c96c 65bf c713 313f a400 a13d 83d2 97be
000001f0: eb8e 083e 52d6 64bd f43d 01bd 7b58 b3bc
00000200: 80ac 0f3a 49bf 01bc 70ac a63b a58a aebe
00000210: 6bb7 703d 6330 e63d 79cd 943e 76fd b9bd
00000220: b8c5 57be c346 17be 95be b73e 30e5 f63d
00000230: e863 90bd 9c28 c2be 3d6c a83d 4ef0 5ebe
00000240: d425 90be f132 833e d249 77bd 59e2 1bbc
00000250: 6121 533d 01bf 82bd 0ac7 773d f6aa 6fbd
00000260: 3c8a 393e f76b 4bbe 5484 ef3d aa63 723e
00000270: f2d3 553d d975 7b3e ee49 8bbe 000b 433d
00000280: b261 b5be daca e6bc d09f 0fbc 8d79 f2bc
00000290: ab0e 0840 7080 1e3f 544c 4f3c 1d20 97bf
000002a0: ee18 133e 9781 1f3e bfe0 2cbe 2d58 b0be
000002b0: 1057 ef3d 7ad6 043c 67f1 103e dd28 c33e
000002c0: c75b 973c 07fd 48be 6fa8 8ebd 7881 b83e
000002d0: 0b01 d43c 8297 36bd 3308 863d d1a7 a13d
000002e0: 4026 e6be dedb 09be 04be 763b 9b54 11be
000002f0: 564d cbba 1255 ccbc 3145 f53c acc4 cbbe
00000300: 822e d9bc 1aca 883e 0037 85bb 0145 ad3c
00000310: 729a f73c eca0 343c 88ad 21be dfd4 813e
00000320: 21fe 4ebf f4be e6bd 9df8 4c3e dbb2 24be
00000330: c92b 6cbe 0ae9 9f3d d5af 3bbf efdf 553e
00000340: ee01 243e 3218 493b c334 19be 2025 67bf
00000350: d5e9 1bbf 83eb 653e effc e33c 2892 293e
00000360: 8f3a df3d ea55 14bd 6414 b3bc 9bf4 f93d
00000370: ce87 083e 4ee1 973c c55f c4bd dd4d a43d
00000380: 545b 16be 01b3 4abd a7a9 d63c d93f 2f3d
00000390: 0910 efbc 4ff7 193d 53d0 8bbf 51f3 8dbd
000003a0: 306b c93e 48ec 713e f200 4b3e e0f9 6f3d
000003b0: 0a03 513e 82b0 723e 67f5 633e 6c46 983e
000003c0: cec7 b03e c134 053d 1df1 a5be 6c78 fd3e
000003d0: 72a1 02bf 055d 7abe 220b d1be e6d8 ffbc
000003e0: 2802 a33b 515a ea3c f982 1fbd 1474 b3be
000003f0: e019 c7be 7ff1 1dbe 9312 d7be 0f1a 873e

fcs1.bias f4 [400]
-0.15762426 0.16255741 0.034321263 0.0698206 0.12103421 -0.15521179 0.103514634 0.13111064
0.06718325 -0.1723086 -0.058733683 0.10145789 0.14354965 0.09842049 -0.008240747 -0.022748262
-0.003053457 0.11265069 0.040645793 -0.12797265 -0.13041902 0.12082483 0.076898985 0.067087665
-0.17194378 0.06091065 0.020129677 0.08796957 0.16428222 0.06679426 -0.0058092047 0.15474913
0.16943023 -0.010949498 0.118529186 -0.021376057 -0.021463072 0.12797497 0.16458988 -0.13067207
-0.009716863 0.07219297 -0.04568189 0.047212508 -0.12522133 0.007283523 0.13658133 -0.11296178
-0.053458456 0.13184252 -0.10804984 0.05918549 -0.025315577 -0.040109184 0.029424202 -0.07772226
0.08748307 0.094751686 0.09232941 -0.11455667 0.08625265 -0.05475997 -0.13469777 -0.05217328
-0.09058185 0.025420656 -0.08577791 0.09230492 -0.1234096 0.104364574 0.057048425 -0.14588395
0.14519466 0.11065347 0.019493874 0.06093098 0.0916288 -0.06266803 0.045832537 -0.03696168
-0.029000722 0.006497187 0.13935171 0.10795898 -0.069173396 0.1200639 -0.05588393 0.17141493
0.06806884 -0.09046429 0.17181331 -0.15298118 0.031728238 -0.15637475 0.041220926 0.12080349
0.11915926 -0.009901829 0.13573334 -0.15114875 -0.08576858 -0.13839173 -0.048181962 0.110092536
0.11323564 -0.07744388 -0.15140139 0.008678436 0.16116582 0.15482193 0.025910612 0.033754084
0.09115052 -0.04388227 -0.041317523 -0.12605824 0.053686246 -0.09531924 -0.08896684 -0.10356099
0.07476202 -0.09495187 -0.16497235 0.1719997 0.079139814 -0.06902145 0.035245243 0.121329755
-0.042830836 0.0510001 -0.12998402 -0.11507339 -0.146998 -0.012858381 -0.042901915 -0.13600594
-0.039819904 -0.14846416 -0.08492643 -0.11033896 0.04739564 0.0689588 0.018037315 0.057967465
0.07696616 -0.17291889 0.003194895 -0.13389315 0.16170596 0.17206441 -0.06795294 -0.1601853
0.057297897 0.0060589574 -0.05078636 -0.020749366 0.12401789 0.08476625 0.006267549 -0.1462515
-0.15444341 -0.066088304 -0.14987794 -0.050988436 -0.06148495 0.053489145 0.14651799 -0.11960298
0.011708345 -0.05845606 -0.06703013 -0.16095182 0.13203317 -0.033359822 -0.13030499 0.07383954
0.14547668 -0.020356579 0.15309332 0.10616992 -0.012851071 0.17168863 -0.14591452 0.09909412
-0.014287829 -0.02173055 0.13057725 -0.108261086 0.13216381 0.1532253 0.14730114 -0.12480111
0.095601834 0.16203511 0.01489442 -0.16324326 0.07653799 -0.1403318 0.026946798 0.060822196
-0.12447621 0.06181502 -0.108904146 -0.06430763 -0.107972376 0.1696391 0.16105959 -0.0511224
0.12445217 -0.09604439 -0.047542892 0.004023884 0.15879391 0.17089516 -0.092476875 -0.029399153
0.12069453 0.15482502 -0.14832926 -0.12030594 0.13648479 -0.10581393 0.16997546 -0.07724154
0.073006764 -0.124811806 -0.086263336 -0.006580614 0.040057935 -0.13327019 -0.13557693 -0.035414096
-0.13691416 -0.046322867 0.018035574 0.14384268 0.09116415 -0.013741797 -0.08091873 0.05300207
0.043849006 -0.114517115 -0.16019815 0.1342635 0.0047596684 0.0001278984 -0.032584798 -0.1348964
-0.061368473 0.16056171 0.019327857 0.06605393 -0.15950595 0.12596208 -0.069228195 -0.010001921
00000000: 4168 21be 7375 263e 7494 0c3d 1afe 8e3d
00000010: c9e0 f73d d7ef 1ebe 7bff d33d de41 063e
00000020: 5f97 893d aa71 30be bb92 70bd 27c9 cf3d
00000030: aefe 123e af90 c93d 3304 07bc 905a babc
00000040: 821c 48bb 68b5 e63d 347c 263d 430b 03be
00000050: 908c 05be 0273 f73d 377d 9d3d 4265 893d
00000060: 0812 30be 727d 793d fee6 a43c 6429 b43d
00000070: 9939 283e 6ecb 883d 245b bebb 8e76 1e3e
00000080: 1e7f 2d3e 8665 33bc 6ebf f23d d71c afbc
00000090: 53d3 afbc df0b 033e 408a 283e e6ce 05be
000000a0: 7a33 1fbc e8d9 933d ef1c 3bbd e761 413d
000000b0: 053a 00be 9faa ee3b fadb 0b3e 8158 e7bd
000000c0: 41f7 5abd ba01 073e 3c49 ddbd 7c6c 723d
000000d0: 9d62 cfbc 8749 24bd 060b f13c d92c 9fbd
000000e0: 532a b33d 2c0d c23d 3417 bd3d b09c eabd
000000f0: 3ba5 b03d fe4b 60bd 36ee 09be a6b3 55bd
00000100: fa82 b9bd fb3e d03c 54ac afbd 5d0a bd3d
00000110: 2cbe fcbd 18bd d53d 9cab 693d 9a62 15be
00000120: e9ad 143e 499e e23d 9eb1 9f3c c392 793d
00000130: e1a7 bb3d 1958 80bd e6ba 3b3d 2165 17bd
00000140: ec92 edbc 5be6 d43b 37b2 0e3e 9919 dd3d
00000150: c8aa 8dbd 10e4 f53d 8ce6 64bd 6587 2f3e
00000160: ad67 8b3d 5745 b9bd d4ef 2f3e 19a7 1cbe
00000170: 78f5 013d b420 20be 46d7 283d d267 f73d
00000180: c509 f43d 483b 22bc aefd 0a3e bdc6 1abe
00000190: 70a7 afbd 90b6 0dbe 735a 45bd 3278 e13d
000001a0: 16e8 e73d e69a 9ebd f708 1bbe 0030 0e3c
000001b0: a708 253e a489 1e3e 7e42 d43c b941 0a3d
000001c0: 20ad ba3d e5bd 33bd 903c 29bd 6915 01be
000001d0: 1ce6 5b3d bc36 c3bd 3f34 b6bd c917 d4bd
000001e0: d41c 993d 2076 c2bd 83ee 28be b020 303e
000001f0: 0e14 a23d 1e5b 8dbd 515d 103d bc7b f83d
00000200: 636f 2fbd 7be5 503d 881a 05be 99ab ebbd
00000210: a586 16be f5ab 52bc ebb9 2fbd 2445 0bbe
00000220: 321a 23bd fd06 18be e8ed adbd 65f9 e1bd
00000230: ee21 423d 453a 8d3d fec2 933c 4b6f 6d3d
00000240: 6fa0 9d3d a611 31be 7261 513b 491b 09be
00000250: 3f96 253e a731 303e e92a 8bbd 9e07 24be
00000260: 33b1 6a3d 388a c63b 5c05 50bd 93fa a9bc
00000270: 17fd fd3d ed99 ad3d 0360 cd3b f4c2 15be
00000280: 6a26 1ebe 4e59 87bd 9a79 19be 40d9 50bd
00000290: a5d7 7bbd 6f17 5b3d d008 163e 68f2 f4bd
000002a0: 5cd4 3f3c 9f6f 6fbd 1847 89bd 8ed0 24be
000002b0: b433 073e 4fa4 08bd ac6e 05be 2f39 973d
000002c0: d7f7 143e d7c2 a6bc 7fc4 1c3e 9d6f d93d
000002d0: 4c8d 52bc 25cf 2f3e 9e6a 15be dcf1 ca3d
000002e0: 8017 6abc 4404 b2bc 0bb6 053e fdb7 ddbd
000002f0: f355 073e 18e7 1c3e 1cd6 163e b997 ffbd
00000300: e5ca c33d 88ec 253e ba07 743c 3e29 27be
00000310: f3bf 9c3d 24b3 0fbe 88bf dc3c b220 793d
00000320: 62ed febd bf31 7d3d 2309 dfbd b8b3 83bd
00000330: 9f20 ddbd dfb5 2d3e ceec 243e b965 51bd
00000340: c8e0 fe3d ecb2 c4bd 56bc 42bd c9da 833b
00000350: df9a 223e 24ff 2e3e 8464 bdbd 7ed6 f0bc
00000360: b22e f73d 738a 1e3e a0e3 17be f662 f6bd
00000370: abc2 0b3e f9b4 d8bd 0c0e 2e3e d030 9ebd
00000380: 9284 953d 559d ffbd d5aa b0bd 31a2 d7bb
00000390: ca13 243d fb77 08be aed4 0abe 5f0e 11bd
000003a0: 3a33 0cbe 0cbd 3dbd 57bf 933c 7f4b 133e
000003b0: 45b4 ba3d 4625 61bc b8b8 a5bd b318 593d
000003c0: 049b 333d f387 eabd fc0a 24be 5f7c 093e
000003d0: fef6 9b3b 771c 0639 a377 05bd 4822 0abe
000003e0: 825d 7bbd 4a6a 243e 7455 9e3c 4847 873d
000003f0: 8755 23be 34fc 003e 83c7 8dbd 19df 23bc

bn1.weight f4 [400]
0.2566594 0.12820143 0.47363308 0.1636269 0.30112723 0.22873849 0.38114846 0.2836831
0.30870533 0.3332673 0.7420031 0.3964711 -0.0039298437 0.44154048 0.3751866 0.17103256
0.36623755 0.6566835 0.5652719 0.19956371 0.706734 0.129432 0.11129059 0.23322175
0.25989524 0.26453033 0.25451452 -0.005271032 0.17365664 0.29275852 0.0015469459 0.21246111
0.28579453 0.44515997 0.35953623 0.34014502 0.24750191 0.29406685 0.19866756 0.23607317
0.2168624 0.32564184 0.30008033 0.31952795 0.37143603 0.004347111 0.19842516 0.3005897
0.29202446 0.31521273 0.3566247 0.39959863 0.31643492 0.3710484 0.22262019 -0.0062478916
0.3722407 0.19592893 0.26507244 0.20806788 0.37885442 0.12259459 0.26672387 0.25501525
0.56752855 0.15594897 0.20867679 0.16585943 0.35573784 0.42359316 0.35102496 0.39193016
1.0232058 0.38494897 0.5028889 0.41023362 0.27542603 0.24467444 0.25017896 0.21583085
0.77005494 0.30008766 0.3502602 0.3669931 0.32959798 0.6607136 0.0002502201 0.49748698
0.42103964 0.36155924 0.23725852 0.38112503 0.31558868 0.34337354 0.43922397 0.36928478
0.41232932 0.34903267 0.23707859 0.3115291 0.51402044 0.12368479 0.47752786 0.21286742
0.21669924 0.6881089 0.46536174 0.0037938 0.44425246 0.7381697 0.31065413 0.1577088
-0.0012977928 0.33729643 0.28565997 0.3767047 0.19339783 0.3808759 0.30353808 0.29705766
0.6163128 0.22424194 0.4852386 0.305682 0.45850217 0.27996877 0.28437784 0.007484959
0.35149008 0.254274 0.14326744 0.23136348 0.27482617 0.16386266 0.17856818 1.1444517
0.5395831 0.2469545 0.33981094 0.6166545 0.0073351944 0.46850154 0.19486073 0.30690885
0.33928192 0.30509424 0.3475197 0.31259778 0.30608243 0.10664979 0.74591255 0.55795383
0.3892283 0.42685047 0.28357103 0.27124584 0.17591944 0.3899557 0.35468236 0.4748258
0.44428825 -0.004124373 0.0438685 0.5762735 0.86427915 0.47902042 0.4000332 0.25225306
0.27429125 0.24334112 0.2899051 0.53846544 0.6222965 0.3777733 0.42792243 0.62004286
0.23697963 0.46164575 0.3481047 0.2895066 0.15519753 0.3196217 0.7233513 0.32932523
0.25511378 0.25712967 0.43001634 0.40000457 0.32583228 0.3367989 0.40170595 0.51605123
0.3117388 0.5072251 0.4117669 0.44474155 0.39045018 0.2450184 0.005114263 0.0049633803
0.07811096 0.44778824 0.33663225 0.31073293 0.38129592 0.32358137 0.0032772215 0.33181798
0.30708015 0.25041932 0.66967463 0.52444184 0.22235753 0.7322876 0.31083882 0.33954132
0.21374822 0.22335695 0.40947708 0.20772202 0.2857391 0.004469917 0.33390966 0.14144908
0.14295349 0.8538854 0.18453237 0.35278502 0.708509 0.4920662 0.4817952 0.6213991
0.5842152 0.1831236 0.23037602 0.79198366 0.3835967 0.55936915 0.4784291 0.3303348
0.36093324 0.38843104 0.20577434 0.23078956 0.30593756 0.5988319 0.19030389 0.24507016
0.03412825 0.3792318 0.23161377 0.26462057 0.21300378 -0.0030342862 0.3528304 0.17167203
00000000: dc68 833e 3c47 033e 0980 f23e cf8d 273e
00000010: 592d 9a3e 6c3a 6a3e e425 c33e e93e 913e
00000020: a00e 9e3e 03a2 aa3e eaf3 3d3f 43fe ca3e
00000030: ebc5 80bb 9811 e23e 7518 c03e 2923 2f3e
00000040: 7d83 bb3e 691c 283f a9b5 103f 6e5a 4c3e
00000050: 85ec 343f d289 043e 52ec e33d afd1 6e3e
00000060: fd10 853e 8570 873e ba4f 823e 9fb8 acbb
00000070: 0cd3 313e 72e4 953e e4c2 ca3a 688f 593e
00000080: a953 923e 02ec e33e 2215 b83e 7d27 ae3e
00000090: 2471 7d3e ee8f 963e 826f 4b3e 2abd 713e
000000a0: 2d11 5e3e 87ba a63e 21a4 993e 2b99 a33e
000000b0: dd2c be3e 3672 8e3b f72f 4b3e e5e6 993e
000000c0: 3b84 953e 9063 a13e 8397 b63e 3198 cc3e
000000d0: c203 a23e 0efa bd3e 8cf6 633e 1dbb ccbb
000000e0: 5596 be3e 98a1 483e 93b7 873e bf0f 553e
000000f0: 35f9 c13e df12 fb3d 0890 883e 5c91 823e
00000100: 8d49 113f 16b1 1f3e 5eaf 553e 0ed7 293e
00000110: 4523 b63e 34e1 d83e 8bb9 b33e 12ab c83e
00000120: 68f8 823f 0818 c53e 54bd 003f 240a d23e
00000130: a404 8d3e f08b 7a3e 7517 803e c302 5d3e
00000140: 5222 453f 17a5 993e 4e55 b33e 85e6 bb3e
00000150: 11c1 a83e 8724 293f f92f 8339 9db6 fe3e
00000160: 8292 d73e 4b1e b93e e6f3 723e d222 c33e
00000170: d794 a13e a8ce af3e f7e1 e03e e512 bd3e
00000180: d41c d33e 69b4 b23e bbc4 723e be80 9f3e
00000190: d896 033f 744e fd3d 887e f43e ebf9 593e
000001a0: 68e6 5d3e e827 303f e543 ee3e 67a1 783b
000001b0: 0f75 e33e b1f8 3c3f 0f0e 9f3e 6a7e 213e
000001c0: b31a aaba 1eb2 ac3e 0642 923e 70df c03e
000001d0: 150a 463e 2a02 c33e 5869 9b3e f117 983e
000001e0: adc6 1d3f ae9f 653e 3271 f83e 5a82 9c3e
000001f0: ccc0 ea3e 1158 8f3e f999 913e 6344 f53b
00000200: 82f6 b33e 3430 823e b3b4 123e 8cea 6c3e
00000210: 04b6 8c3e 9dcb 273e 94da 363e 657d 923f
00000220: 1e22 0a3f a4e1 7c3e b3fb ad3e 12dd 1d3f
00000230: 125c f03b 6fdf ef3e 9289 473e 2823 9d3e
00000240: 5cb6 ad3e 5035 9c3e 1aee b13e d10c a03e
00000250: d6b6 9c3e 356b da3d 20f4 3e3f 10d6 0e3f
00000260: ef48 c73e 258c da3e 3930 913e bce0 8a3e
00000270: 3a24 343e 46a8 c73e ed98 b53e 5e1c f33e
00000280: c079 e33e c025 87bb 75af 333d a986 133f
00000290: 6641 5d3f 2a42 f53e 27d1 cc3e 5027 813e
000002a0: e76f 8c3e 6a2e 793e 716e 943e dfd8 093f
000002b0: d34e 1f3f 816b c13e a618 db3e 21bb 1e3f
000002c0: caaa 723e d55c ec3e c73a b23e 363a 943e
000002d0: 1aec 1e3e 75a5 a33e 8d2d 393f 519d a83e
000002e0: 469e 823e 80a6 833e 1a2b dc3e 66cd cc3e
000002f0: 7dd3 a63e e870 ac3e 67ac cd3e ef1b 043f
00000300: 3a9c 9f3e 81d9 013f 1cd3 d23e 2ab5 e33e
00000310: 16e9 c73e 1ae6 7a3e 8c95 a73b daa3 a23b
00000320: a4f8 9f3d 8044 e53e 105b ac3e 6318 9f3e
00000330: 3839 c33e 75ac a53e a7c6 563b 0ce4 a93e
00000340: 9c39 9d3e f636 803e cc6f 2b3f d241 063f
00000350: b1b1 633e 3377 3b3f 4426 9f3e 5cd8 ad3e
00000360: d0e0 5a3e afb7 643e fba6 d13e 15b5 543e
00000370: 654c 923e 6278 923b 35f6 aa3e 07d8 103e
00000380: 6662 123e 3c98 5a3f 0ef6 3c3e 3da0 b43e
00000390: d960 353f 1af0 fb3e dcad f63e 0314 1f3f
000003a0: 218f 153f c184 3b3e b1e7 6b3e 71bf 4a3f
000003b0: c966 c43e d132 0f3f a9f4 f43e a521 a93e
000003c0: 3ecc b83e 6fe0 c63e 82b6 523e 1954 6c3e
000003d0: d9a3 9c3e 0c4d 193f 06df 423e acf3 7a3e
000003e0: 10ca 0b3d ac2a c23e 292c 6d3e 597c 873e
000003f0: aa1d 5a3e e0da 46bb 30a6 b43e cbca 2f3e

bn1.bias f4 [400]
-0.48089 -0.087104626 -0.67269045 -0.506983 -0.4465325 -0.32224655 -0.4205471 -0.31430316
-0.5231948 -0.5090136 -0.3044781 -0.38318577 -0.04797801 -0.50220066 -0.6434819 -0.1786513
-0.28006786 0.2939726 -0.29780766 -0.52280223 -0.5817644 -0.12319608 0.23911917 -0.31829107
-0.40997094 0.07168034 -0.43803054 -0.061560757 -0.41317943 -0.3294063 -0.036684483 -0.33190933
-0.55797344 -0.71858466 -0.4766159 -0.115971245 -0.5375579 -0.26227394 -0.31904748 -0.37365374
-0.5885473 -0.5847302 -0.5530165 -0.2474659 -0.580788 -0.02864536 -0.33785915 -0.23086923
-0.44571918 -0.4652802 -0.30475926 -0.7759942 0.07383491 -0.5838841 -0.5431329 -0.05378379
-0.56412864 -0.52265376 -0.5886969 -0.24211764 -0.40089607 -0.31681228 -0.3975336 -0.554447
-0.58180296 0.041120812 -0.51229846 -0.5294501 -0.2966034 -0.35709098 -0.2814898 -0.45743573
-0.34919024 -0.5376451 -0.6168032 -0.36119348 -0.43399957 -0.46430653 -0.4227898 -0.7382354
0.0718853 -0.45942357 -0.5129328 -0.5632665 -0.6073553 -0.37757295 -0.0029928854 -0.28864565
-0.6522637 -0.6573059 -0.2711022 -0.5562819 -0.45375857 -0.7661195 0.274662 -0.4462258
-0.33593234 -0.6623661 -0.32801887 -0.3652095 -0.51492065 -0.0811132 -0.39376235 -0.2773009
-0.66252947 -0.5526562 -0.49248588 -0.03090361 0.17289242 -0.3771743 -0.37608862 -0.20577581
-0.06255206 -0.52713716 -0.2723364 -0.17920436 -0.6063713 -0.54147327 -0.480315 -0.7200061
0.3458418 -0.4362784 -0.5213615 -0.30366537 -0.544457 -0.58742225 -0.45569736 -0.053297717
-0.21242161 -0.2870569 0.058918487 -0.312574 -0.35289797 -0.18530388 -0.18055102 -0.46344918
-0.51533973 -0.23642804 -0.19615312 -0.51148504 -0.046461724 -0.4941133 -0.3248791 -0.38215983
-0.32249603 -0.29445386 -0.739034 -0.2850686 -0.2253172 -0.026759434 0.051247455 -0.51738733
-0.67065835 -0.35256544 -0.1606554 -0.38528132 -0.14240457 -0.54631764 -0.28018543 -0.7660229
-0.74865216 -0.0877143 -0.3023483 -0.41500866 -0.5118824 -0.6805724 -0.4485829 -0.15217006
-0.49013963 -0.14004909 -0.22755778 -0.52831787 -0.58472914 -0.29437912 -0.62245244 -0.8291689
-0.059912823 -0.37399688 -0.50730056 -0.51389974 -0.093712784 -0.41505656 -0.46748388 -0.36733183
-0.41503152 -0.41592982 -0.24806868 -0.53177184 -0.39442143 -0.54315037 -0.5084539 -0.39060134
-0.4895663 -0.4653142 -0.5492796 -0.51199925 -0.607267 -0.44919127 -0.07684692 -0.03287227
-0.48984045 0.034088366 -0.55890936 -0.40710932 -0.5472226 -0.327704 -0.03371381 -0.77042276
-0.2614625 -0.40243652 -0.6486222 -0.69829214 -0.35748643 -0.265507 -0.060654126 -0.36185694
-0.38629156 -0.3983685 -0.6693736 -0.3896341 -0.38160577 -0.05759155 -0.35406464 -0.042173136
0.026648017 -0.6398382 -0.24745747 -0.74729073 -0.6741126 0.15197724 -0.3383694 -0.7324189
-0.60137665 -0.38229606 -0.7963901 -0.39628664 -0.43140295 -0.3631016 -0.21356535 -0.6153569
0.06627523 -0.69638944 -0.26963308 -0.46390536 -0.86439574 -0.41805747 -0.348158 -0.39352325
-0.19981733 -0.6968483 -0.30588582 -0.44295236 -0.4364267 -0.04702537 -0.48603383 -0.27946523
00000000: 3737 f6be e963 b2bd 7135 2cbf a3c9 01bf
00000010: e89f e4be 80fd a4be f351 d7be 58ec a0be
00000020: 18f0 05bf b74e 02bf 8ee4 9bbe ed30 c4be
00000030: 9784 44bd 3990 00bf 3bbb 24bf 5ef0 36be
00000040: 0e65 8fbe 9483 963e 3f7a 98be 5ed6 05bf
00000050: 83ee 14bf 3a4e fcbd a8db 743e 0cf7 a2be
00000060: b6e7 d1be 24cd 923d 8a45 e0be 2227 7cbd
00000070: 418c d3be f1a7 a8be 7842 16bd 05f0 a9be
00000080: 59d7 0ebf 2af5 37bf 0007 f4be 5582 edbd
00000090: 659d 09bf c548 86be 315a a3be 8b4f bfbe
000000a0: 09ab 16bf e1b0 15bf 7d92 0dbf b367 7dbe
000000b0: 86ae 14bf ada9 eabc e0fb acbe fc68 6cbe
000000c0: 4e35 e4be 3539 eebe 6809 9cbe 8ea7 46bf
000000d0: c236 973d 6e79 15bf c20a 0bbf 644c 5cbd
000000e0: bc6a 10bf a3cc 05bf d7b4 16bf b0ed 77be
000000f0: 4042 cdbe 3835 a2be 8689 cbbe 3df0 0dbf
00000100: 0af1 14bf 4c6e 283d fe25 03bf 0b8a 07bf
00000110: 67dc 97be a1d4 b6be 6e1f 90be 0435 eabe
00000120: 10c9 b2be 1ca3 09bf d1e6 1dbf 5aee b8be
00000130: 3135 debe 96b9 edbe e877 d8be fffc 3cbf
00000140: 9a38 933d 9139 ebbe 904f 03bf 3c32 10bf
00000150: a37b 1bbf 3e51 c1be 4924 44bb 5dc9 93be
00000160: c1fa 26bf 3345 28bf e8cd 8abe 7e68 0ebf
00000170: 0b53 e8be 6820 44bf 7fa0 8c3e b577 e4be
00000180: 53ff abbe d390 29bf 17f2 a7be bdfc babe
00000190: d7d1 03bf ad1e a6bd 389b c9be 62fa 8dbe
000001a0: 889b 29bf e07a 0dbf 1c27 fcbe 9129 fdbc
000001b0: b60a 313e fd1c c1be b08e c0be e5b6 52be
000001c0: 4b1b 80bd 76f2 06bf ad6f 8bbe 5981 37be
000001d0: 263b 1bbf fe9d 0abf d9eb f5be 5252 38bf
000001e0: 2d12 b13e e25f dfbe f277 05bf 077a 9bbe
000001f0: 8961 0bbf 4e61 16bf 2a51 e9be b54e 5abd
00000200: 0d85 59be 1ff9 92be 8354 713d b309 a0be
00000210: 0baf b4be 4dc0 3dbe 5ee2 38be 3649 edbe
00000220: 4eed 03bf 311a 72be 5ddc 48be aff0 02bf
00000230: a64e 3ebd 6bfc fcbe 8e56 a6be 74aa c3be
00000240: 331e a5be a8c2 96be 5531 3dbf 83f4 91be
00000250: 8db9 66be 9a36 dbbc dae8 513d 7f73 04bf
00000260: 44b0 2bbf 7583 b4be d982 24be 9843 c5be
00000270: 81d2 11be 79db 0bbf 7774 8fbe 141a 44bf
00000280: aba7 3fbf 8ea3 b3bd 65cd 9abe 047c d4be
00000290: ba0a 03bf fe39 2ebf a8ac e5be 78d2 1bbe
000002a0: 95f3 fabe 0769 0fbe e804 69be d73f 07bf
000002b0: cfb0 15bf dcb8 96be 0b59 1fbf 6a44 54bf
000002c0: 2667 75bd 857c bfbe 73de 01bf ef8e 03bf
000002d0: 7dec bfbd 4b82 d4be 0c5a efbe eb12 bcbe
000002e0: 037f d4be c1f4 d4be b705 7ebe 3322 08bf
000002f0: 9bf1 c9be e70b 0bbf 092a 02bf e6fc c7be
00000300: 6fa8 fabe aa3d eebe 969d 0cbf 6212 03bf
00000310: da75 1bbf 66fc e5be eb61 9dbd 13a5 06bd
00000320: 5ecc fabe 3ea0 0b3d af14 0fbf a270 d0be
00000330: c816 0cbf d2c8 a7be 7e17 0abd 6d3a 45bf
00000340: 6ade 85be 290c cebe 1b0c 26bf 46c3 32bf
00000350: 7608 b7be 89f0 87be 7670 78bd 5045 b9be
00000360: 02c8 c5be f5f6 cbbe 115c 2bbf 1f7e c7be
00000370: d561 c3be 1ee5 6bbd f647 b5be bdbd 2cbd
00000380: f14c da3c 70cc 23bf 7e65 7dbe 724e 3fbf
00000390: a592 2cbf ec9f 1b3e c13e adbe ce7f 3bbf
000003a0: d2f3 19bf 4fbc c3be 39e0 4bbf 15e6 cabe
000003b0: d9e0 dcbe 74e8 b9be e0b0 5abe 0888 1dbf
000003c0: 4fbb 873d 9446 32bf 590d 8abe 0185 edbe
000003d0: 0a49 5dbf a10b d6be c441 b2be e17b c9be
000003e0: ea9c 4cbe a664 32bf 119d 9cbe a7ca e2be
000003f0: 5273 dfbe ad9d 40bd 6dd9 f8be 1116 8fbe

bn1.running_mean f4 [400]
-0.019516708 -1.6855022 -1.4370772 1.0859691 -0.55711144 -0.98923236 2.3538952 0.89919126
-1.6989129 0.7075831 0.070996754 0.54680985 0.15109006 -0.6180159 -3.9356391 0.11929722
-1.012952 2.3040614 0.8804948 -2.5726526 0.14470942 -2.0776157 0.794758 -1.7283248
-0.65239614 2.6041074 0.67602205 0.38515696 1.0156646 0.22164327 0.16355379 1.9671407
-0.8084947 -0.59259534 1.1758052 -0.97454035 -1.1505889 -0.6832301 2.2019413 -1.4761703
-0.19501449 -3.6164489 0.23455028 2.2844002 -0.419709 0.114129856 2.060304 2.377646
1.2334878 -1.8966867 0.8284464 -1.2772182 -0.82316214 -2.5725644 -1.4993731 -0.8510191
-0.94572294 1.2410328 -5.225861 1.5388036 2.33695 3.440882 1.5180467 -1.3198931
1.738574 1.1454837 -0.15591589 -1.1378386 2.1527135 0.457395 1.422363 1.6007676
-0.118520156 -2.0247009 -0.2393667 -1.9452816 0.39115417 1.6920224 -1.3641105 -1.7302246
1.5333463 -3.8042042 0.037852306 0.08320745 0.025018113 0.25519115 0.03089638 -0.024729298
-2.2077987 -1.2758791 0.56216013 -2.3875868 0.09091844 -4.73535 0.18622486 0.17069794
-1.0561867 -4.907373 -1.3570894 1.466356 -1.31976 0.28165856 -0.5646543 3.4604723
-0.8017821 0.3416612 -1.892218 -0.18726188 2.657887 0.5799857 2.5256598 -0.22405808
-0.21852072 -0.84329957 -1.322873 -1.487578 -4.1013675 3.1658533 0.5397996 3.0136726
1.9196138 0.5004726 1.5052322 -1.7674774 1.9503915 1.5528811 -1.5188916 0.23916398
-0.75432223 1.1091006 1.2211087 0.85740674 -1.6405183 1.8484765 -2.1405854 0.061902937
-0.37427074 -1.9505206 -0.9493691 -0.5470894 0.0321533 -0.8734343 0.8587199 -2.0787742
0.31131664 2.369389 1.2499083 -0.3601941 -0.4587845 -0.5110337 0.5316634 -0.11001027
-2.8903544 0.25059497 -1.1882601 2.63212 1.8966842 -0.24241324 0.40057334 -1.1077706
-1.2893285 -0.6296713 -1.5900112 0.87174845 -0.24943623 1.4172319 -1.4380687 -2.381184
1.7579104 -1.2086397 1.7689838 -1.4502158 -0.62360036 1.5151923 -1.4049213 0.8083765
-0.9156942 -0.6507535 0.3045533 0.12501068 -1.2524309 3.3032548 0.05587858 0.861272
0.9596973 -0.7087315 3.324026 -2.4170625 -2.420335 0.3201115 -1.4428872 0.1965284
-3.7780387 0.18206069 1.0292522 0.1364007 -1.4916403 0.53481984 -0.29507867 -0.0916495
-2.5606523 -2.2285829 -1.4966682 1.1269737 1.4211105 -1.6115197 0.2027971 -3.2008693
0.6192495 -2.0412595 0.866423 -2.8740036 0.25731513 -0.29019913 0.11821626 0.9352049
-2.5241807 0.12158781 1.7155381 -1.822479 1.3642114 0.0018576906 1.262048 -3.4836884
0.31074217 -0.23427418 0.7258276 0.60070115 -0.2933469 -0.24464513 0.86263174 -0.70608366
-1.2969481 2.8513205 -1.3824188 0.028903307 -0.6908612 0.43422738 -0.4069895 -2.4759748
0.034456328 -2.528775 0.84710073 0.61125433 -5.743606 0.23467393 1.7264647 -1.9501163
0.42603466 2.7538068 2.3289227 0.30441213 0.3743612 0.4281211 0.57271886 -4.720408
00000000: 81e1 9fbc 89be d7bf 25f2 b7bf 0901 8b3f
00000010: db9e 0ebf 553e 7dbf 38a6 1640 6631 663f
00000020: fa75 d9bf 2b24 353f bf66 913d bbfb 0b3f
00000030: 5ab7 1a3e 4a36 1ebf 83e1 7bc0 1a52 f43d
00000040: 69a8 81bf be75 1340 1b68 613f 57a6 24c0
00000050: b52e 143e a8f7 04c0 4375 4b3f bf39 ddbf
00000060: 6f03 27bf b2a9 2640 c80f 2d3f 4b33 c53e
00000070: 4c01 823f 74f6 623e a57a 273e 44cb fb3f
00000080: 82f9 4ebf 54b4 17bf c980 963f 7a7b 79bf
00000090: 7f46 93bf 2be8 2ebf 9bec 0c40 26f3 bcbf
000000a0: e1b1 47be e673 67c0 f32d 703e 9d33 1240
000000b0: 19e4 d6be eabc e93d 05dc 0340 5a2b 1840
000000c0: eee2 9d3f a1c6 f2bf 1015 543f e37b a3bf
000000d0: c1ba 52bf e5a4 24c0 75eb bfbf 63dc 59bf
000000e0: e61a 72bf 2ada 9e3f 413a a7c0 84f7 c43f
000000f0: 9790 1540 6937 5c40 5b4f c23f 42f2 a8bf
00000100: 9889 de3f 369f 923f 6aa8 1fbe b2a4 91bf
00000110: 0fc6 0940 ad2f ea3e fe0f b63f f4e5 cc3f
00000120: b2ba f2bd b394 01c0 8b1c 75be fdfe f8bf
00000130: 5c45 c83e 3194 d83f 2c9b aebf 0078 ddbf
00000140: b144 c43f 1578 73c0 050b 1b3d ab68 aa3d
00000150: c9f2 cc3c 6aa8 823e 681a fd3c 1995 cabc
00000160: 934c 0dc0 0250 a3bf bae9 0f3f 39ce 18c0
00000170: 7233 ba3d fd87 97c0 bbb1 3e3e 71cb 2e3e
00000180: 2031 87bf 3309 9dc0 1bb5 adbf 8eb1 bb3f
00000190: e5ed a8bf 8d35 903e 2f8d 10bf 6178 5d40
000001a0: 9741 4dbf 38ee ae3e 3334 f2bf 94c1 3fbe
000001b0: d21a 2a40 f179 143f 69a4 2140 7b6f 65be
000001c0: e5c3 5fbe 7be2 57bf e753 a9bf f568 bebf
000001d0: 673e 83c0 579d 4a40 4e30 0a3f 03e0 4040
000001e0: e8b5 f53f f91e 003f 73ab c03f b33c e2bf
000001f0: 6ea6 f93f cfc4 c63f 0a6b c2bf 67e7 743e
00000200: 431b 41bf 02f7 8d3f 4a4d 9c3f 027f 5b3f
00000210: 81fc d1bf e19a ec3f 5aff 08c0 ef8d 7d3d
00000220: 6aa0 bfbe a9aa f9bf da09 73bf 0d0e 0cbf
00000230: 2eb3 033d 6499 5fbf 11d5 5b3f a30a 05c0
00000240: e564 9f3e 12a4 1740 fffc 9f3f 5c6b b8be
00000250: cde5 eabe 1bd3 02bf 181b 083f 104d e1bd
00000260: 91fb 38c0 fc4d 803e e818 98bf a774 2840
00000270: 8cc6 f23f 2d3b 78be f317 cd3e 6dcb 8dbf
00000280: b708 a5bf 2332 21bf 7d85 cbbf e82a 5f3f
00000290: 366c 7fbe db67 b53f a312 b8bf 5265 18c0
000002a0: 3503 e13f b5b4 9abf 106e e23f aca0 b9bf
000002b0: 46a4 1fbf d2f1 c13f 76d4 b3bf c3f1 4e3f
000002c0: ef6a 6abf c897 26bf 69ee 9b3e cd02 003e
000002d0: a84f a0bf 8768 5340 f0e0 643d 527c 5c3f
000002e0: b9ae 753f 6d6f 35bf d8bc 5440 27b1 1ac0
000002f0: c5e6 1ac0 a8e5 a33e 87b0 b8bf be3e 493e
00000300: 63cb 71c0 1e6e 3a3e 89be 833f a0ac 0b3e
00000310: 12ee bebf f4e9 083f 8d14 97be bcb2 bbbd
00000320: bae1 23c0 1aa1 0ec0 d392 bfbf ad40 903f
00000330: f3e6 b53f 4746 cebf 0baa 4f3e 0bdb 4cc0
00000340: 2387 1e3f ffa3 02c0 e6cd 5d3f adef 37c0
00000350: cfbe 833e fb94 94be 5e1b f23d 9769 6f3f
00000360: 2d8c 21c0 0803 f93d c196 db3f fe46 e9bf
00000370: 7b9e ae3f c17d f33a ca8a a13f c0f4 5ec0
00000380: 9919 9f3e 92e5 6fbe d6cf 393f 8dc7 193f
00000390: 9131 96be 4184 7abe 6fd5 5c3f e6c1 34bf
000003a0: 6502 a6bf 097c 3640 19f3 b0bf a1c6 ec3c
000003b0: 48dc 30bf 0d53 de3e ee60 d0be 5f76 1ec0
000003c0: 1422 0d3d 73d7 21c0 98db 583f 2a7b 1c3f
000003d0: 9fcb b7c0 5d4e 703e ccfc dc3f 699d f9bf
000003e0: 3721 da3e 5f3e 3040 120d 1540 e8db 9b3e
000003f0: 45ac bf3e b032 db3e b49d 123f 950d 97c0

bn1.running_var f4 [400]
3.1996424 5.460901 2.6872294 2.5203679 4.893837 5.467164 24.96552 23.739094
5.3850107 13.277684 0.44976076 8.076761 0.830013 3.7890828 20.003813 4.706291
4.7791 23.468306 5.7531385 4.6981926 5.2904243 4.441502 32.30662 9.75042
11.217502 11.934053 4.4766665 0.36988243 9.559759 1.6117064 0.14236039 2.7840552
14.619421 2.7774756 14.692991 42.54372 9.369492 5.9949203 5.538803 4.8020077
2.911564 7.4503 7.291027 15.644438 10.110452 0.41334996 3.556405 20.57922
2.934869 6.3555813 26.307783 8.261687 9.731517 4.5203667 3.4610372 0.45190847
3.9780648 13.452907 7.814106 14.965395 12.541546 6.5259123 13.199851 3.0584044
14.538617 3.681262 9.519754 5.761744 3.6968794 1.5742089 8.042135 13.264888
7.691213 8.339766 3.8235855 5.086453 23.962605 11.672869 9.314691 23.649748
41.905754 6.8507476 9.273876 2.070627 4.9023137 4.7987137 0.051577058 7.516906
6.4454293 2.8361938 5.3261976 8.197356 2.545013 6.797502 23.815878 1.6991973
4.3910227 8.418785 5.337549 5.1380353 10.61265 8.022528 8.8183155 9.925378
23.473372 5.0163336 5.7060585 0.120448574 41.821953 4.327097 18.02848 2.9753373
0.090345524 2.3751345 11.013616 0.94708526 11.944724 7.281239 19.265797 4.1704254
29.58053 5.5461593 8.684417 6.601797 18.69446 8.846623 12.251319 0.20195675
5.9762645 8.797871 14.87368 8.156754 17.96028 6.191873 9.085526 5.331118
3.5401127 8.8383875 5.992311 2.115003 0.47899187 5.8215475 3.5785637 31.085083
32.917767 17.2612 4.697441 20.19098 10.480169 19.52067 13.808121 5.579499
32.30024 7.1667085 0.51340604 16.50813 9.611097 4.3479357 4.4545064 4.6742616
4.004135 0.29912373 5.104641 5.439443 5.470144 20.976664 10.825736 3.4134023
7.094917 1.1054994 25.2955 2.454839 7.5221577 11.140442 2.7296498 5.598711
12.333619 0.83832717 5.8830996 11.346156 3.6221025 6.7633114 4.5447125 13.603826
13.241538 3.4614754 13.085663 5.531246 5.5711875 11.027742 3.7981184 0.94469845
4.265877 1.5719572 11.037189 6.098447 36.338272 9.095515 0.23564155 0.2759911
7.068847 6.9612064 3.0849197 36.86516 5.1101885 23.207214 0.17260149 7.9102364
12.960937 6.132198 2.8254316 3.634784 4.9562197 6.065843 18.83853 8.092489
5.91506 3.398728 4.198772 7.8424816 18.725409 0.23052953 17.383894 28.942554
28.88043 1.8282897 2.0824516 6.796207 6.4185333 3.4517837 33.219498 4.566464
11.400544 7.4110737 11.704352 5.37776 7.373046 4.358777 5.727443 8.148689
64.41063 11.016055 6.3200097 3.2694824 6.0690527 1.1396165 6.6059036 12.850875
0.56833047 19.446861 7.4671726 2.8888817 4.4654546 0.29059255 14.147299 4.1301775
00000000: f1c6 4c40 b3bf ae40 91fb 2b40 b54d 2140
00000010: 509a 9c40 02f3 ae40 63b9 c741 aae9 bd41
00000020: 0252 ac40 6571 5441 0b47 e63e 6a3a 0141
00000030: bb7b 543f 5580 7240 cf07 a041 f099 9640
00000040: 63ee 9840 17bf bb41 b619 b840 9857 9640
00000050: 284b a940 c920 8e40 fb39 0142 b801 1c41
00000060: e37a 3341 e2f1 3e41 da40 8f40 3b61 bd3e
00000070: c6f4 1841 654c ce3f ecc6 113e f62d 3240
00000080: 26e9 6941 29c2 3140 7e16 6b41 c52c 2a42
00000090: 70e9 1541 63d6 bf40 e03d b140 0caa 9940
000000a0: 1157 3a40 dc68 ee40 1850 e940 9e4f 7a41
000000b0: 69c4 2141 9ba2 d33e 249c 6340 3ea2 a441
000000c0: e5d4 3b40 ec60 cb40 5776 d241 df2f 0441
000000d0: 4bb4 1b41 d8a6 9040 a281 5d40 8c60 e73e
000000e0: 9d98 7e40 1b3f 5741 280d fa40 4272 6f41
000000f0: 2caa 4841 46d4 d040 9732 5341 e6bc 4340
00000100: 2d9e 6841 cc99 6b40 ea50 1841 3560 b840
00000110: ac99 6c40 ad7f c93f 96ac 0041 fb3c 5441
00000120: 6b1e f640 ae6f 0541 a0b5 7440 39c4 a240
00000130: 6ab3 bf41 12c4 3a41 f908 1541 af32 bd41
00000140: 7e9f 2742 5339 db40 cc61 1441 2785 0440
00000150: c1df 9c40 108f 9940 7742 533d 7e8a f040
00000160: f540 ce40 3384 3540 3670 aa40 5f28 0341
00000170: 7ee1 2240 2385 d940 eb86 be41 4c7f d93f
00000180: 4283 8c40 58b3 0641 34cd aa40 c96a a440
00000190: 6acd 2941 465c 0041 d217 0d41 59ce 1e41
000001a0: 77c9 bb41 ce85 a040 0898 b640 bead f63d
000001b0: ae49 2742 9477 8a40 543a 9041 ed6b 3e40
000001c0: 1307 b93d 3402 1840 c537 3041 2e74 723f
000001d0: 971d 3f41 e9ff e840 5a20 9a41 2074 8540
000001e0: eda4 ec41 237a b140 5ff3 0a41 ec41 d340
000001f0: 418e 9541 c58b 0d41 6705 4441 c0cd 4e3e
00000200: 8f3d bf40 14c4 0c41 98fa 6d41 1082 0241
00000210: a7ae 8f41 d323 c640 515e 1141 8598 aa40
00000220: 3591 6240 096a 0d41 03c1 bf40 365c 0740
00000230: 6c3e f53e 1e4a ba40 3007 6540 40ae f841
00000240: cbab 0342 f016 8a41 7051 9640 2187 a141
00000250: c6ae 2741 552a 9c41 10ee 5c41 418b b240
00000260: 7233 0142 ad55 e540 946e 033f a610 8441
00000270: 0ec7 1941 4a22 8b40 518b 8e40 8d93 9540
00000280: e021 8040 bf26 993e 3859 a340 eb0f ae40
00000290: 6b0b af40 35d0 a741 3736 2d41 2f75 5a40
000002a0: 8f09 e340 0181 8d3f 2f5d ca41 151c 1d40
000002b0: 84b5 f040 403f 3241 95b2 2e40 a428 b340
000002c0: 8156 4541 9c9c 563f 5a42 bc40 db89 3541
000002d0: 87d0 6740 0c6d d840 496e 9140 45a9 5941
000002e0: 57dd 5341 d088 5d40 e05e 5141 f8ff b040
000002f0: 2b47 b240 a271 3041 5f14 7340 c2d7 713f
00000300: 1082 8840 e535 c93f 5398 3041 7a26 c340
00000310: 645a 1142 3b87 1141 054c 713e b54e 8d3e
00000320: ff33 e240 34c2 de40 536f 4540 ed75 1342
00000330: aa86 a340 60a8 b941 72be 303e a820 fd40
00000340: ff5f 4f41 f73a c440 dfd3 3440 4da0 6840
00000350: 5a99 9e40 631b c240 4fb5 9641 d67a 0141
00000360: 2c48 bd40 c284 5940 575c 8640 9cf5 fa40
00000370: a3cd 9541 ef0f 6c3e 3712 8b41 5a8a e741
00000380: 1f0b e741 6605 ea3f e346 0540 877a d940
00000390: a064 cd40 06ea 5c40 c4e0 0442 7920 9240
000003a0: a168 3641 8427 ed40 0745 3b41 9c16 ac40
000003b0: feef eb40 1a7b 8b40 3747 b740 0861 0241
000003c0: 3ed2 8042 c341 3041 853d ca40 333f 5140
000003d0: ae35 c240 f4de 913f 9063 d340 2f9d 4d41
000003e0: 1b7e 113f 2c93 9b41 14f3 ee40 70e3 3840
000003f0: 01e5 8e40 8cc8 943e 565b 6241 6a2a 8440

fc2.weight f4 [300, 404]
0.0029598156 0.023409056 0.0002983548 -0.075117506 -0.07454323 -0.0058195535 -0.031874273 0.03385078
-0.0075030187 0.020366512 -0.0081169 -0.04176558 -0.04322241 -0.0943054 0.010960417 -0.02454252
-0.05261552 -0.0443977 -0.0026460032 0.023876473 -0.02322063 -0.08324991 -0.06881684 0.018568642
-0.06989222 -0.15015854 -0.07678037 -0.009377809 -0.014280325 0.0083843265 0.030426022 -0.032582335
0.01308808 0.028676935 -0.09057705 -0.059970465 -0.045015734 -0.06041422 -0.039489806 -0.019221649
0.009188367 -0.021896807 -0.012969888 -0.051677275 0.005651602 -0.0331773 -0.026895419 0.0031372982
-0.08895706 -0.027783958 0.019556552 -0.08338869 -0.07084334 -0.05688471 -0.0051033543 -0.032228943
-0.062696055 -3.0889532e-06 -0.028454594 -0.0042298213 0.030144604 -0.036149163 0.07564918 0.035125148
-0.014614131 -0.020581769 0.026780294 -0.008537587 -0.05002676 0.016492857 -0.043378226 -0.052748725
0.0031680556 0.08153573 -0.062059697 -0.01955549 -0.04554126 -0.039268788 -0.0017936633 -0.08963853
-0.0043940507 0.0024218278 -0.068152964 0.03363138 0.036203817 -0.029480303 0.018232115 0.008575173
-0.02033719 0.05688996 -0.01784081 0.0041607087 -0.063126944 -0.03122937 -0.00938636 -0.02926371
0.008808225 0.03488953 -0.027626555 0.04589055 0.036090083 -0.048954595 0.02665113 0.022490464
0.02336021 0.0048862793 0.0038715359 0.03918235 0.042535413 -0.07926218 -0.08915092 -0.007178974
-0.03032445 0.029879613 0.021506356 -0.08496407 -0.026187843 -0.12034637 -0.118583895 -0.10794651
-0.036396448 -0.06740739 0.08872866 -0.16055705 -0.03973105 -0.043557156 0.019149587 0.022848967
-0.030502187 -0.0067760223 0.0066175065 -0.06588273 -0.088390015 -0.0028106112 -0.027806 -0.062189795
-0.14857726 0.014428893 0.012926665 0.008246203 0.057954155 -0.06547265 0.0060243104 -0.0069544245
-0.064178124 0.026508285 0.05250056 -0.041199334 -0.027576068 0.01977326 -0.042195544 -0.086820066
0.05377921 -0.019020626 -0.034042414 -0.05466933 -0.043356825 0.03529442 0.022339186 0.008650184
0.015480243 0.040081546 -0.06024923 0.024115095 -0.055114742 -0.06557228 0.0766135 0.028821263
-0.040063825 -0.017547451 -0.034702443 0.020470444 0.026751062 -0.03836391 -0.045354016 -0.167301
-0.04369093 -0.075884335 -0.061394256 -0.009182943 0.076841146 -0.06189979 -0.018733967 -0.012534946
0.006205895 0.07065094 0.024401553 0.041736566 0.007199585 0.015021166 -0.06231977 -0.03317801
-0.14121845 -0.057244133 -0.042453893 0.032828424 0.06680714 -0.03292943 0.0045919926 -0.00047214137
0.044343114 -0.063305475 0.0018230637 -0.060545456 -0.040720858 -0.022901084 -0.025435923 0.04106797
-0.035184152 0.060132913 -0.024006935 -0.047771197 -0.001744847 0.01576572 -0.03224087 0.009441983
-0.011144807 -0.055433787 -0.0048881657 -0.011887814 0.036424067 -0.026085535 -0.07043569 -0.10437469
-0.023654025 -0.1344685 -0.013482379 0.047594875 -0.082497075 -0.067404285 0.012994032 -0.0814538
-0.08567958 -0.0054331054 -0.023857806 0.005870535 -0.07068271 -0.058112267 -0.08733892 -0.05157787
-0.012093458 -0.091245085 -0.054837573 -0.06890453 -0.024641257 0.0070432345 -0.02480462 -0.013955011
-0.0019420226 0.009082001 0.055293046 -0.10621001 -0.032189056 -0.032263 -0.045372967 0.08052027
00000000: 77f9 413b 59c4 bf3c 816c 9c39 35d7 99bd
00000010: 1faa 98bd f4b1 bebb 998e 02bd 1ea7 0a3d
00000020: e2db f5bb acd7 a63c bffc 04bc 6312 2bbd
00000030: fb09 31bd 3123 c1bd 5293 333c 650d c9bc
00000040: 5f83 57bd 5dda 35bd 9168 2dbb 9898 c33c
00000050: 3139 bebc ee7e aabd d8ef 8cbd 441d 983c
00000060: a723 8fbd 29c3 19be 073f 9dbd 62a5 19bc
00000070: 06f8 69bc 6a5e 093c fe3f f93c 0e75 05bd
00000080: 636f 563c e4eb ea3c 7680 b9bd 97a3 75bd
00000090: 6b62 38bd e774 77bd 10c0 21bd b876 9dbc
000000a0: ce8a 163c ef60 b3bc a77f 54bc 8dab 53bd
000000b0: 1331 b93b ece4 07bd c853 dcbc 219b 4d3b
000000c0: 1e2f b6bd 2f9b e3bc 1035 a03c b1c7 aabd
000000d0: 5016 91bd f1ff 68bd 0a3a a7bb 7f02 04bd
000000e0: ca66 80bd d04b 4fb6 9c19 e9bc 509a 8abb
000000f0: d1f1 f63c 2511 14bd f5ed 9a3d 63df 0f3d
00000100: 1c70 6fbc 199b a8bc 5962 db3c 3ce1 0bbc
00000110: dce8 4cbd 071c 873c 5ead 31bd 0c0f 58bd
00000120: 279f 4f3b 34fc a63d 4f32 7ebd d632 a0bc
00000130: 7989 3abd 4fd8 20bd 5a19 ebba 6894 b7bd
00000140: f8fb 8fbb 87b7 1e3b c893 8bbd 0fc1 093d
00000150: 744a 143d ad80 f1bc 845b 953c e27e 0c3c
00000160: 2e9a a6bc 7205 693d e426 92bc 8e56 883b
00000170: b348 81bd bcd4 ffbc 3fc9 19bc 73ba efbc
00000180: 6050 103c 53e8 0e3d 1651 e2bc bbf7 3b3d
00000190: 32d3 133d 9d84 48bd 7853 da3c ec3d b83c
000001a0: e95d bf3c 151d a03b 98b9 7d3b ac7d 203d
000001b0: 9d39 2e3d 3654 a2bd c294 b6bd 993d ebbb
000001c0: fb6a f8bc 17c6 f43c 192e b03c a401 aebd
000001d0: e387 d6bc 2878 f6bd 1ddc f2bd 0f13 ddbd
000001e0: 7114 15bd e30c 8abd 5fb7 b53d 1169 24be
000001f0: 07bd 22bd fd68 32bd 98df 9c3c c22d bb3c
00000200: b9df f9bc 6509 debb abd7 d83b 86ed 86bd
00000210: d305 b5bd 3b32 38bb 69c9 e3bc baba 7ebd
00000220: a324 18be 2a67 6c3c 5dca 533c 151b 073c
00000230: 5661 6d3d 8616 86bd 9467 c53b f1e1 e3bb
00000240: d26f 83bd e727 d93c d40a 573d a2c0 28bd
00000250: 35e7 e1bc 88fb a13c 3cd5 2cbd b8ce b1bd
00000260: 9747 5c3d 25d1 9bbc 0f70 0bbd f3ec 5fbd
00000270: ed96 31bd e290 103d ab00 b73c 80b9 0d3c
00000280: d8a0 7d3c 8c2c 243d e6c7 76bd 058d c53c
00000290: ffbf 61bd c24a 86bd 8ae7 9c3d 921a ec3c
000002a0: f719 24bd acbf 8fbc 2624 0ebd a2b1 a73c
000002b0: 0b25 db3c 7a23 1dbd 22c5 39bd f450 2bbe
000002c0: 43f5 32bd 3f69 9bbd 8b78 7bbd 0e74 16bc
000002d0: e45e 9d3d a28a 7dbd fa77 99bc 605f 4dbc
000002e0: d25a cb3b 71b1 903d c4e5 c73c f6f3 2a3d
000002f0: 7fea eb3b 561b 763c 0443 7fbd aae5 07bd
00000300: 929b 10be d378 6abd 22e4 2dbd 1977 063d
00000310: 2fd2 883d 03e1 06bd 6d78 963b be89 f7b9
00000320: 20a1 353d 4da6 81bd def3 ee3a 83fe 77bd
00000330: eaca 26bd 0e9b bbbc ff5e d0bc e336 283d
00000340: 421d 10bd ee4d 763d 31aa c4bc bbab 43bd
00000350: 5ab3 e4ba 1c27 813c 010f 04bd 8cb2 1a3c
00000360: b598 36bc 8a0e 63bd e82c a0bb 1bc5 42bc
00000370: 6731 153d 55b1 d5bc 9640 90bd 66c2 d5bd
00000380: 16c6 c1bc 1cb2 09be 32e5 5cbc d8f2 423d
00000390: 3af4 a8bd 420b 8abd ece4 543c 40d1 a6bd
000003a0: c778 afbd 3108 b2bb 7271 c3bc 9e5d c03b
000003b0: 19c2 90bd 2107 6ebd bfde b2bd 5143 53bd
000003c0: a423 46bc b4de babd 5d9d 60bd d11d 8dbd
000003d0: 76dc c9bc efca e63b 0f33 cbbc 8fa3 64bc
000003e0: 778b feba accc 143c f67a 623d a284 d9bd
000003f0: acd8 03bd 3526 04bd 01d9 39bd d0e7 a43d

fc2.bias f4 [300]
-0.051783174 -0.08375224 -0.035597704 -0.059250664 -0.04383065 -0.08518809 -0.108825564 -0.052822255
0.01303746 -0.083274424 -0.04994444 -0.06360023 -0.0714477 -0.08585251 -0.007542617 -0.059841316
-0.13361871 -0.008504048 -0.054590438 -0.07733812 -0.02894534 -0.29952177 -0.20757322 -0.097468466
0.5124422 -0.034720436 0.009739559 -0.12626332 0.37094864 -0.061632566 -0.01916908 -0.07388535
0.012415134 -0.08564241 -0.06978391 0.6283734 -0.14109215 0.80340034 -0.027786054 -0.0062991166
-0.057035983 0.010900888 -0.07260806 -0.086191125 -0.051145013 -0.10821842 0.1996969 -0.055161532
-0.031714246 0.02833378 -0.041550737 0.3802039 -0.09051738 -0.015030794 -0.08744418 -0.07885292
-0.0842628 -0.06434842 -0.026632227 0.37760213 -0.059959896 -0.051672276 0.9441464 -0.08799515
-0.07219051 -0.07645216 -0.05276727 -0.072099306 0.019139834 0.26014766 -0.03865934 -0.08658753
-0.057656538 -0.061340634 -0.042450033 -0.009307432 -0.07234223 -0.020866422 -0.09562567 -0.05245756
0.7990448 -0.06946246 -0.063716374 -0.06352523 -0.05946012 -0.083606705 -0.03252591 -0.07145509
-0.020217167 -0.028003173 -0.09003012 -0.014803383 -0.092218295 -0.033126496 -0.035417143 -0.106627576
0.7183861 -0.05056974 -0.03617691 -0.018574366 -0.08731664 -0.12822074 -0.012522351 -0.11315335
-0.09324632 -0.0944581 -0.019034265 -0.050426476 -0.07360327 -0.05515749 -0.003625385 -0.09757763
-0.041855186 -0.044488516 0.37594575 -0.06368722 -0.02155618 -0.18319519 -0.280957 -0.04148219
-0.108064555 -0.053820457 -0.058031403 -0.10728373 -0.06605684 -0.10206743 0.4780783 -0.063704684
-0.02378261 -0.07171271 -0.09639371 0.5119788 -0.04203839 -0.10286862 -0.08500711 0.010093582
-0.087860525 -0.054176886 -0.031645 -0.06679162 -0.02094817 -0.069501445 -0.06911705 -0.04760199
-0.0660151 -0.34945294 -0.18940264 -0.104723744 -0.04875731 -0.052347194 -0.08781039 -0.012827829
-0.08157395 -0.1281675 -0.08167988 -0.07857704 -0.057544667 -0.04210648 0.57017666 -0.030573763
-0.032271046 -0.015590634 -0.090623066 0.0027463983 -0.06401801 -0.06709591 0.002618451 -0.020270586
-0.062420916 -0.093641914 -0.006227758 -0.040107362 0.37072274 0.4565174 -0.058217417 -0.055514682
-0.024126299 -0.051167034 -0.06583949 -0.08459647 -0.100780934 -0.04508009 -0.08553207 -0.08321878
-0.051352702 -0.098684035 -0.027137823 -0.09461508 -0.08579945 -0.01412422 -0.062004745 -0.031638723
-0.053062215 -0.08483575 -0.08164167 -0.064344704 -0.17226025 0.0047539338 -0.062335867 -0.057553824
-0.07109835 -0.0577147 -0.0751292 -0.08610336 -0.04477679 0.3921454 -0.05705289 -0.02753056
-0.07430682 -0.112621345 0.25974005 -0.02693174 0.5180948 0.6561018 -0.055831384 -0.064464055
-0.099911265 -0.08038915 -0.05471022 -0.13941127 -0.047840953 0.20325643 -0.040139843 -0.057501595
-0.07310272 0.4598357 -0.09190379 -0.023813402 -0.011339905 -0.09242262 0.42684102 -0.13987046
-0.09470808 -0.028381873 -0.078079954 0.2631856 -0.024963005 -0.025169263 0.009721087 -0.058327638
-0.08111621 0.20725368 -0.11674483 -0.0658454 -0.06021575 -0.07053082 -0.06665998 -0.054627508
-0.39005843 0.086261 -0.077142105 0.83858943 -0.06753009 -0.06464643 -0.06416856 -0.06921287
00000000: 981a 54bd 4b86 abbd e6ce 11bd d3b0 72bd
00000010: c587 33bd 1877 aebd f0df debd 265c 58bd
00000020: 129b 553c c88b aabd 8b92 4cbd d640 82bd
00000030: 2c53 92bd 71d3 afbd 0f28 f7bb 2b1c 75bd
00000040: 58d3 08be 9054 0bbc 399a 5fbd 7363 9ebd
00000050: c71e edbc eb5a 99be 138e 54be 8c9d c7bd
00000060: 692f 033f 0437 0ebd ac92 1f3c 2c4b 01be
00000070: fbec bd3e 6e72 7cbd 7908 9dbc 3451 97bd
00000080: d968 4b3c 4a65 afbd deea 8ebd 14dd 203f
00000090: 767a 10be a5ab 4d3f 949f e3bc d268 cebb
000000a0: 909e 69bd a399 323c 89b3 94bd f984 b0bd
000000b0: 6f7d 51bd 9ea1 ddbd 587d 4c3e 0ff1 61bd
000000c0: cce6 01bd 3e1c e83c 1b31 2abd 16aa c23e
000000d0: 2d61 b9bd b843 76bc ef15 b3bd a47d a1bd
000000e0: fa91 acbd 1bc9 83bd d42b dabc 1155 c13e
000000f0: 8298 75bd 4fa6 53bd 94b3 713f cd36 b4bd
00000100: 9ed8 93bd f392 9cbd 7e22 58bd cda8 93bd
00000110: 24cb 9c3c 1332 853e 4259 1ebd ce54 b1bd
00000120: 4329 6cbd 5140 7bbd 16e0 2dbd 337e 18bc
00000130: 2a28 94bd 0ff0 aabc 64d7 c3bd bddd 56bd
00000140: 338e 4c3f 5642 8ebd bb7d 82bd 8419 82bd
00000150: 748c 73bd fe39 abbd e339 05bd 0c57 92bd
00000160: 799e a5bc e966 e5bc b661 b8bd e389 72bc
00000170: f2dc bcbd a6af 07bd 9111 11bd 8f5f dabd
00000180: 27e8 373f 3722 4fbd 3d2e 14bd 4529 98bc
00000190: 11d3 b2bd 4c4c 03be 8c2a 4dbc f2bc e7bd
000001a0: edf7 bebd 4073 c1bd bfed 9bbc fe8b 4ebd
000001b0: 50bd 96bd d2ec 61bd de97 6dbb c8d6 c7bd
000001c0: 5870 2bbd 9739 36bd f67b c03e 726e 82bd
000001d0: 9696 b0bc 8597 3bbe 99d9 8fbe 3be9 29bd
000001e0: f350 ddbd d772 5cbd 56b2 6dbd 92b7 dbbd
000001f0: cf48 87bd bb08 d1bd aec6 f43e 9a77 82bd
00000200: c0d3 c2bc 1dde 92bd 116a c5bd 0b11 033f
00000210: 7230 2cbd c8ac d2bd 3518 aebd 8d5f 253c
00000220: 38f0 b3bd 95e8 5dbd 309e 01bd 0bca 88bd
00000230: 7f9b abbc c656 8ebd 3d8d 8dbd 4efa 42bd
00000240: ed32 87bd 7feb b2be c4f2 41be 6779 d6bd
00000250: bfb5 47bd 036a 56bd efd5 b3bd d12b 52bc
00000260: 3e10 a7bd 573e 03be c847 a7bd 00ed a0bd
00000270: f5b3 6bbd d877 2cbd 19f7 113f d475 fabc
00000280: a52e 04bd dc6f 7fbc 9698 b9bd ebfc 333b
00000290: e01b 83bd 9569 89bd 519a 2b3b 800e a6bc
000002a0: 13ad 7fbd 55c7 bfbd 3812 ccbb 9e47 24bd
000002b0: 5fcf bd3e a6bc e93e 6375 6ebd 5d63 63bd
000002c0: 84a4 c5bc 8694 51bd dbd6 86bd ea40 adbd
000002d0: 3c66 cebd e7a5 38bd 702b afbd 9c6e aabd
000002e0: 3657 52bd db1a cabd 2450 debc 8dc5 c1bd
000002f0: 9fb7 afbd 4669 67bc b0f8 7dbd 9b97 01bd
00000300: c457 59bd 5ebe adbd bf33 a7bd 28c7 83bd
00000310: fe64 30be e3c6 9b3b e553 7fbd 8fbd 6bbd
00000320: 039c 91bd 4066 6cbd 57dd 99bd f556 b0bd
00000330: de67 37bd 48c7 c83e 4bb0 69bd c587 e1bc
00000340: 2d2e 98bd 05a6 e6bd a6fc 843e f49f dcbc
00000350: dca1 043f 4af6 273f 73af 64bd bb05 84bd
00000360: 479e ccbd 11a3 a4bd d317 60bd d4c1 0ebe
00000370: e0f4 43bd 7422 503e ad69 24bd cb86 6bbd
00000380: e1b6 95bd 966f eb3e 0e38 bcbd 5314 c3bc
00000390: 02cb 39bc 1248 bdbd e88a da3e 343a 0fbe
000003a0: 4ff6 c1bd 1a81 e8bc 62e8 9fbd 43c0 863e
000003b0: 377f ccbc c52f cebc 3245 1f3c f6e8 6ebd
000003c0: 4120 a6bd 4f3a 543e ea17 efbd f4d9 86bd
000003d0: caa4 76bd 7672 90bd 0785 88bd 18c1 5fbd
000003e0: bdb5 c7be 9ba9 b03d aefc 9dbd ccad 563f
000003f0: 374d 8abd 5965 84bd ce6a 83bd 7abf 8dbd
