results/checkpoint_actor.pth (torch_old, 548258 bytes, 10 tensors)

fc1.weight f4 [400, 33]
000000 bb dc 46 3d fe 42 9f 3e 42 cf 1e 3e 7e 8c 19 bd
       0.04855035 0.31105798 0.1550875 -0.0374875
000010 35 00 9c 3e df 78 05 3d 7e db 86 3d e6 95 41 bc
       0.30468908 0.032585975 0.065848336 -0.011815524
000020 96 a5 94 be 8e de 12 be 98 bb a6 bd 90 b7 4e bd
       -0.29032582 -0.1434271 -0.081412494 -0.050468028
000030 29 af ba bc 42 4b 94 3e 2b 6c 10 3e 83 6c 8e 3e
       -0.022788601 0.28963667 0.14103763 0.27817163
000040 cf 27 ac bd 54 9d 2f 3d 4b 87 7d 3e 00 e6 14 be
       -0.084060304 0.04287465 0.24758641 -0.14540863
000050 3b d7 f1 bc a8 ce 1a be bc a4 96 3d c8 30 58 be
       -0.029521575 -0.15117896 0.07355639 -0.21112359
000060 ac 90 08 3e 79 c3 3c bd 51 6c ff 3c 2d 93 ae 3c
       0.13336438 -0.046084855 0.031179579 0.021310413
000070 95 fa 28 3f c0 88 e5 3b c6 67 2c 3d 91 5a 02 3d
       0.6600736 0.0070048273 0.042091154 0.031824652
000080 45 70 0a bf 51 51 b5 be 43 da 4f 3f e5 fc 90 3e
       -0.5407756 -0.35413602 0.81192416 0.28317943
000090 9d a3 b2 3d e0 f6 a3 bd 23 f2 9a bd 1f 63 62 be
       0.08722613 -0.08006072 -0.07565715 -0.22108124
0000a0 e0 55 f8 bd 77 cd f0 bd a1 cd 1f bc f5 ac 46 bd
       -0.12125754 -0.11757939 -0.009753616 -0.04850479
0000b0 92 23 e5 bd 2e 51 e1 3d c6 17 c5 3e 8b c4 86 be
       -0.11188425 0.11001812 0.384947 -0.26321825
0000c0 7f 58 c7 3d 95 89 b7 bd 8f c5 2d 3e b8 65 e1 3c
       0.09733676 -0.089617886 0.16969894 0.027514324
0000d0 7c 02 5d bd 26 d3 25 be 29 f8 21 3e 04 ba 81 3d
       -0.053957447 -0.16193828 0.15817322 0.06334308
0000e0 47 7d a9 3d ee ce c5 bd 7d ef 45 3e af 85 5b bd
       0.08275848 -0.09658609 0.19329639 -0.053594287
0000f0 56 15 1b bd 43 57 0d 3c 37 e8 38 3d 17 83 3d 3d
       -0.037862144 0.008626762 0.045143332 0.046267595
000100 a0 f5 e6 bc 65 a8 89 be 1d 00 ac 3e 85 69 4c be
       -0.028193295 -0.26886287 0.33593836 -0.19962128
000110 3b 04 d1 bb 14 a2 77 3c 1a 43 bc bd f3 4a 23 3e
       -0.006378678 0.015114326 -0.09192486 0.1594656
000120 98 6d 7b bd 31 03 40 be fe 04 02 3e 54 33 89 3e
       -0.061383814 -0.18751217 0.12697217 0.26796973
000130 44 96 c4 3d f0 be 40 3e d9 bd a6 3e ba 5f bc be
       0.095989734 0.18822837 0.32566717 -0.36791784
000140 6f 4a 8d be af 83 80 be 00 ab 8a 3d 98 eb 0c 3a
       -0.2759585 -0.25100467 0.06770897 0.00053756824
000150 fb e3 e2 3d d1 f8 32 3d f4 aa 16 3d d8 af 01 be
       0.1107864 0.04369432 0.036784127 -0.12664735
000160 9f 4e 92 3b e5 2c e4 bd e3 2b d4 bd e1 85 c9 3b
       0.004464939 -0.111413755 -0.10359933 0.006149993
000170 0f c7 78 be bc cb 72 3c 8c e9 01 be f2 55 1e bd
       -0.24294685 0.014819082 -0.12686747 -0.038656183
000180 49 86 35 bd 67 fd 08 3d a1 ea 3a be ec c2 ed be
       -0.044317517 0.03344479 -0.18253566 -0.46437776
000190 70 92 75 3f 51 26 12 3e 69 ed 19 bc a1 82 bf be
       0.9592657 0.14272429 -0.009394982 -0.3740435
0001a0 74 68 0c be 0b 28 80 3d 27 46 5d 3d fe 6c 36 3e
       -0.1371172 0.062576376 0.05402198 0.17815015
0001b0 fb 83 f7 bc 6b b9 ac bd 62 e4 59 bd f9 b1 d7 3d
       -0.0302143 -0.08433803 -0.05319632 0.105319925
0001c0 42 15 05 bd f9 98 8a be 9d 77 53 bc d3 ca 15 3d
       -0.032490976 -0.27069834 -0.012906936 0.03657038
0001d0 78 0a 10 3e 79 35 05 3d 30 2b cc bd ea 04 16 3e
       0.14066494 0.0325217 -0.09969175 0.14650312
0001e0 2d 2b 44 bc 36 e9 ab 3b 80 4c cb bd 1e eb 82 bd
       -0.0119731845 0.005246307 -0.099267006 -0.06392501
0001f0 3e e8 3b bd 78 fe 24 3e 0a cb 70 bc 49 6e bc bd
       -0.04587578 0.16112697 -0.014696846 -0.09200723
000200 46 d4 f6 3c e6 97 5d bc 33 74 44 3d 3c da 0e be
       0.030130517 -0.013524985 0.04796238 -0.13950437
000210 d8 d5 45 3e 16 f0 53 3e f3 b9 16 3e 3b 47 c4 3d
       0.19319856 0.20697054 0.14719371 0.09583899
000220 38 dc a7 3d 27 2d 10 3e 44 47 fe bc ff c8 c2 3e
       0.081963 0.14079724 -0.031039841 0.38043973
000230 9b d4 95 be 63 5a ee bd fd 41 8c 3d 45 94 98 be
       -0.29263768 -0.11638334 0.06848524 -0.2980062
000240 ba ec 1b be 2b 0c 84 3e 9a 77 d7 3e 7c a6 ac be
       -0.15227023 0.25790533 0.42083436 -0.33720767
000250 f6 2e 09 3e 75 2d 1d 3e e6 57 7e bb 1c ed 61 be
       0.1339682 0.15349372 -0.0038809716 -0.22063106
000260 77 c9 50 be 70 c5 31 3e 30 75 02 be c3 2a b1 bd
       -0.20389353 0.17360473 -0.12740016 -0.08650734
000270 9f af 22 bd 0e 9d ed bd 3a 5d 20 3e f3 a5 39 3b
       -0.039718267 -0.116022214 0.15660563 0.0028327673
000280 e7 b2 d1 ba 3d 63 0f bd 0a 05 3e 3d 88 0e 49 bd
       -0.0015998752 -0.03500675 0.046391524 -0.049086124
000290 d7 df dc be 6c ed 95 be 4d 35 da bc 46 db d2 be
       -0.43139526 -0.292827 -0.026636744 -0.41182917
0002a0 dd db 65 3e c3 b6 35 be 47 ff 90 bd b0 79 69 be
       0.22447152 -0.177455 -0.0707994 -0.22800326
0002b0 e1 c4 50 bc 30 b7 f7 3d b7 2f 6a be ee 01 82 bd
       -0.012742252 0.12095487 -0.22869764 -0.06348024
0002c0 58 4f 1e 3e 00 ec ac bd 3f c5 48 3d ff dd bb bc
       0.15459955 -0.08443451 0.049016234 -0.022933004
0002d0 69 a4 9d bd 00 6b 37 3e 07 97 a6 3d 74 e8 78 bd
       -0.076973744 0.17911911 0.08134275 -0.06076856
0002e0 b8 30 7a 3d 88 29 ce 3d 9a 9d 0d 3e bb 37 57 bd
       0.061081618 0.10066515 0.13829651 -0.052543383
0002f0 09 35 3c 3e b5 99 9f be 9a 4d 8b bd ca 0e 33 3e
       0.18379606 -0.31171957 -0.06801911 0.1748611
000300 64 39 7b 3b 2b e7 55 be 13 3b 22 bd 6a 04 9a bb
       0.0038333768 -0.20888965 -0.03960712 -0.004700233
000310 c2 49 d1 3c 61 90 95 bf 7e ef 5b be d5 4b 41 3e
       0.025547866 -1.1684686 -0.21478078 0.18876584
000320 13 32 0e be 3f 0c 45 3b 1c 7a 31 be ba 0d 2d 3e
       -0.1388629 0.0030067114 -0.17331737 0.16899768
000330 c5 a2 64 bc 59 9b 29 3e af 67 a0 bd 51 7b 19 be
       -0.013954823 0.16563167 -0.07832276 -0.14988448
000340 ce 60 ce bc 44 b8 2c 3e 02 39 0c 3e ee 39 1f be
       -0.025192644 0.16867167 0.13693622 -0.15549442
000350 70 17 2d 3f 79 9c 9b 3e 8c 5c 42 bd 42 62 2b be
       0.6761389 0.30392817 -0.04745154 -0.16736701
000360 e0 4c d8 bd f4 34 b9 bc a6 fd 22 3e 89 63 5e 3d
       -0.10561538 -0.022608258 0.15917072 0.054294143
000370 c4 fb cd 3c 32 59 55 bd 63 3f c1 3b c1 1b b8 3e
       0.025144465 -0.052087016 0.005897449 0.35958675
000380 8b 1a 45 3d 3b 13 ee 3c 65 59 b0 3c 0e 24 d4 3c
       0.048121016 0.029061904 0.021527002 0.025896098
000390 4b 69 cf bb 9d 42 00 bd e2 7a 4f 3d 36 2a 19 be
       -0.0063296906 -0.031313527 0.0506543 -0.14957508
0003a0 a2 51 9c 3e f5 50 41 3f f7 8d e4 3d 5f af e9 bd
       0.3053103 0.75514156 0.1115989 -0.114104025
0003b0 24 5d 61 3c 60 7d 34 3e 45 ef 7d bd 4d 85 26 be
       0.013755117 0.17625952 -0.061995763 -0.16261788
0003c0 93 d4 38 bd 67 72 37 bb 99 03 01 bc 70 e4 af 3e
       -0.0451246 -0.0027991773 -0.007874393 0.3435397
0003d0 f6 b6 11 3c eb 25 91 3e fd 66 28 be 64 42 da 3d
       0.008893719 0.28349242 -0.16445537 0.10657194
0003e0 e5 58 b9 3d 2c 54 3b bc 67 93 25 3d 0a 7a 9b bd
       0.090501584 -0.011433642 0.040423777 -0.075916365
0003f0 8f 57 40 be 0d 5d a4 3d 4e 7a fe 3d fc 1d 8e 3d
       -0.18783401 0.080255605 0.124256715 0.06939313

fc1.bias f4 [400]
000000 26 a3 21 be 36 61 26 3e a4 46 0e 3d 87 54 8e 3d
       -0.15784892 0.1624802 0.034735337 0.06949716
000010 02 3d f8 3d 73 d7 1e be eb ca d3 3d af 50 06 3e
       0.12121011 -0.15511875 0.10341438 0.13116716
000020 19 76 89 3d a3 43 30 be d7 b2 69 bd 7d dd cf 3d
       0.067119785 -0.17213301 -0.05705532 0.101496674
000030 12 30 13 3e 98 7f c9 3d ff b6 01 bc e8 e4 b9 bc
       0.14373806 0.0983879 -0.007917165 -0.022692159
000040 aa 1c 5b bb 32 86 e7 3d 75 0d 27 3d b5 ce 02 be
       -0.0033433833 0.113048926 0.040784318 -0.12774165
000050 f5 a0 05 be 2b 91 f7 3d 02 1b 9e 3d 31 68 89 3d
       -0.13049681 0.120882355 0.07719995 0.06709326
000060 14 fb 2f be 67 e3 79 3d f5 c5 a2 3c 64 29 b4 3d
       -0.17185622 0.061007883 0.019869784 0.08796957
000070 56 42 28 3e d0 04 88 3d be c4 bc bb 55 78 1e 3e
       0.16431555 0.06641543 -0.005760758 0.1547559
000080 f4 82 2d 3e c7 98 32 bc 0e 20 f3 3d e4 7a ae bc
       0.16944486 -0.010900683 0.11871348 -0.021298833
000090 79 5b b0 bc 9a 4b 03 3e 9c 54 28 3e f7 ad 05 be
       -0.021527993 0.12821808 0.16438526 -0.13054644
0000a0 73 78 1f bc ff c2 93 3d 1a 55 39 bd ee ab 40 3d
       -0.009733307 0.07214927 -0.045247175 0.047038965
0000b0 99 39 00 be 2e 60 f0 3b ff f1 0b 3e c3 ef e6 bd
       -0.12521972 0.0073356843 0.13666533 -0.112762
0000c0 d7 8c 5a bd 72 eb 06 3e c9 f6 dc bd d2 c4 71 3d
       -0.05335697 0.13175753 -0.10789258 0.059025593
0000d0 04 2a d0 bc 04 ce 1e bd 22 a2 ee 3c fa 2a 9f bd
       -0.02541066 -0.03877069 0.029130045 -0.07771869
0000e0 8a 43 b3 3d ab 19 c2 3d 46 dd bc 3d 8a 36 ea bd
       0.087531164 0.09477552 0.09221892 -0.11436184
0000f0 fc 41 af 3d 07 54 60 bd 27 0b 0a be f4 80 57 bd
       0.085575074 -0.054767635 -0.13480817 -0.052613214
000100 cc 84 b9 bd cc 99 d4 3c c2 7b af bd 7d e3 bc 3d
       -0.09058532 0.025952242 -0.08568527 0.092230774
000110 04 a7 fc bd 7f a2 d4 3d af aa 69 3d 46 6c 15 be
       -0.12336543 0.10382556 0.057047542 -0.14592084
000120 3f 37 14 3e 4f 8f e2 3d 1a b9 9e 3c bf df 77 3d
       0.144742 0.1106249 0.019375373 0.060516115
000130 83 35 bb 3d 84 49 80 bd 4a fc 3b 3d 81 f0 17 bd
       0.09141066 -0.06264022 0.0458949 -0.037094597
000140 8d 12 ed bc e2 15 d4 3b ee 84 0e 3e c5 ab dc 3d
       -0.02893951 0.006472335 0.13917896 0.1077495
000150 50 77 8d bd 85 31 f4 3d 8c e6 64 bd 6a f7 2f 3e
       -0.06907523 0.119235076 -0.05588393 0.17184225
000160 a6 94 8b 3d ba c3 b9 bd eb f3 2f 3e f7 c5 1c be
       0.06815462 -0.09070535 0.17182891 -0.15309893
000170 25 f2 00 3d 1f 47 20 be 8c e7 29 3d 23 17 f7 3d
       0.031480927 -0.1565213 0.041480586 0.1206496
000180 62 4b f5 3d 1c cf 26 bc bd 8e 0d 3e 3a ae 1a be
       0.11977269 -0.010181215 0.13823982 -0.15105525
000190 6b 8a af bd 3a b0 0d be 1b 5a 44 bd 9e 17 e1 3d
       -0.08571323 -0.13836756 -0.047937494 0.10990833
0001a0 a6 ad e6 3d e2 0b 9e bd 5c 54 1b be 68 1a 10 3c
       0.112635896 -0.0771711 -0.151689 0.008795358
0001b0 b7 25 25 3e 73 76 1d 3e b7 8d d4 3c d8 b0 0a 3d
       0.16127668 0.15377216 0.025946481 0.033860058
0001c0 20 ad ba 3d 68 9f 33 bd 70 78 2a bd 4b 34 01 be
       0.09115052 -0.043853194 -0.041618764 -0.12617604
0001d0 54 63 5d 3d 3f ea c2 bd fb 78 b6 bd 95 36 d4 bd
       0.054049805 -0.09517335 -0.08909794 -0.10361973
0001e0 2f 1e 98 3d 70 de c2 bd f6 2a 29 be f4 0e 30 3e
       0.07427632 -0.09515083 -0.16520295 0.17193204
0001f0 52 e2 a1 3d 5b 44 8d bd fc ea 0f 3d d2 7f f8 3d
       0.07904495 -0.068978034 0.035136208 0.12133755
000200 9d a3 30 bd e2 70 4f 3d 5a 4d 05 be 94 2f ea bd
       -0.043124784 0.050644763 -0.13017789 -0.11434856
000210 cd 84 16 be 55 9d 52 bc bf 99 30 bd 6b 57 0d be
       -0.14699097 -0.012854894 -0.043115374 -0.13802879
000220 61 8c 22 bd 39 f3 17 be 5e c7 ae bd 5c d6 e1 bd
       -0.039684657 -0.14838876 -0.0853412 -0.11027214
000230 d4 1d 42 3d 0a a2 8c 3d 9b f8 99 3c 56 c8 6d 3d
       0.047391728 0.06866844 0.018795302 0.058052383
000240 ec 79 9d 3d e7 0a 31 be fc 00 4c 3b 0f 2f 09 be
       0.076892704 -0.17289315 0.0031128516 -0.13396858
000250 28 f5 25 3e 94 07 30 3e 88 ef 8a bd 6b e0 23 be
       0.16206801 0.17190391 -0.06783968 -0.16003577
000260 6f 84 67 3d 76 b8 cb 3b 34 39 4b bd 1a bf a8 bc
       0.056522783 0.006217058 -0.0496151 -0.020598937
000270 b1 c9 fe 3d 33 e9 ad 3d 00 d0 cc 3b f0 dc 14 be
       0.12440813 0.08491745 0.0062503815 -0.14537406
000280 7c f6 1d be b9 ba 87 bd ad 84 19 be 57 33 4c bd
       -0.15426058 -0.066274114 -0.14992018 -0.04985365
000290 8c bb 80 bd a0 23 5b 3d 17 10 16 3e 84 b4 f4 bd
       -0.06285772 0.05350077 0.14654575 -0.11948493
0002a0 60 d3 3f 3c fd d8 6f bd a7 70 89 bd d2 0d 25 be
       0.011708111 -0.058556546 -0.0671094 -0.16118553
0002b0 2b b0 06 3e 2d 4b 07 bd 42 a5 04 be a0 b9 96 3d
       0.1315314 -0.033030678 -0.12953666 0.07359624
0002c0 e1 15 15 3e 51 16 bd bc f1 d4 1c 3e d3 bc d8 3d
       0.14559127 -0.02308193 0.15315606 0.1058289
0002d0 9d 5a 53 bc fe f3 2f 3e 4c f5 14 be 9f c5 ca 3d
       -0.012900022 0.1718292 -0.14546698 0.099009745
0002e0 e3 c4 65 bc f6 45 b1 bc 53 5b 05 3e fa 70 dd bd
       -0.014023992 -0.021639805 0.13023119 -0.10812564
0002f0 be 27 07 3e 9b da 1c 3e c8 db 16 3e 65 29 fe bd
       0.13198754 0.15317766 0.14732277 -0.12410239
000300 77 d8 c3 3d 6c b0 25 3e b6 70 7d 3c c3 5e 27 be
       0.09562772 0.16180581 0.015468767 -0.16344742
000310 c5 7d 9d 3d 7b b4 0f be 1c fe df 3c 14 a3 79 3d
       0.07690004 -0.14033692 0.027342848 0.06094654
000320 bb 30 fe bd 6d 59 80 3d 82 b7 df bd d8 cd 83 bd
       -0.12411638 0.062670566 -0.10923673 -0.06435746
000330 93 e4 dc bd 45 a5 2d 3e 0d e2 24 3e 86 e7 50 bd
       -0.107857846 0.16957577 0.16101857 -0.051002048
000340 cb d2 fe 3d 79 f3 c4 bd 8c 40 42 bd 0f 1a 6c 3b
       0.12442549 -0.09616751 -0.047424838 0.0036026274
000350 d6 9a 22 3e 06 13 2f 3e 51 03 be bd 80 4f f1 bc
       0.15879378 0.170971 -0.09277976 -0.029456854
000360 0a a0 f7 3d 63 8b 1e 3e 10 e4 17 be a7 38 f6 bd
       0.12091072 0.1548286 -0.14833093 -0.12022524
000370 e8 bf 0b 3e 03 94 d8 bd cd 02 2e 3e 47 54 9e bd
       0.13647425 -0.10575106 0.16993256 -0.077309184
000380 07 2b 96 3d ca a5 00 be 74 b8 b0 bd 94 72 d7 bb
       0.073324256 -0.12563244 -0.08628932 -0.006574938
000390 eb a8 20 3d 40 a0 08 be ee d8 0a be a4 e1 11 bd
       0.039223593 -0.1334238 -0.13559315 -0.03561558
0003a0 8a 1e 0c be ad 19 3d bd d4 b7 95 3c 30 c5 11 3e
       -0.13683525 -0.046167064 0.018276133 0.14235377
0003b0 12 ea b9 3d d9 a7 60 bc 31 8b a5 bd 9d 64 59 3d
       0.090778485 -0.013711893 -0.08083189 0.053074468
0003c0 d6 1e 33 3d 5d 69 ea bd 0a ea 23 be be 56 09 3e
       0.04373058 -0.11445878 -0.16007248 0.13411996
0003d0 0a ad 9f 3b 22 55 be 3a 97 36 05 bd 7e 4f 0a be
       0.004872923 0.0014521221 -0.032522764 -0.13506886
0003e0 68 56 7c bd 0f 76 24 3e ac 9e 9d 3c 7c 6f 87 3d
       -0.06160584 0.16060661 0.0192407 0.06613061
0003f0 3e 4b 23 be 34 fc 00 3e 9f 5d 8d bd 5a 28 21 bc
       -0.15946671 0.12596208 -0.069026224 -0.009836281

bn1.weight f4 [400]
000000 7a e3 8b 3e c8 b0 10 3f b6 47 60 3f 41 fd 36 3f
       0.27321988 0.56519747 0.8760942 0.71480185
000010 14 e7 fd 3e f9 5e c3 3e a0 8f ea 3e a2 cb 0f 3f
       0.4959036 0.38158396 0.45812702 0.56170094
000020 fb 19 48 3f a0 0d 3e 3f 6e 67 5c 3f 67 55 85 3f
       0.78164643 0.7423954 0.8609532 1.0416688
000030 a4 65 20 3f 3f 3e 45 3f e9 e4 67 3f 68 9a 84 3f
       0.6265509 0.77048105 0.90583664 1.0359621
000040 65 54 02 3f 99 a0 72 3f dd 8e 30 3f b0 48 a6 3e
       0.50910026 0.947763 0.6896799 0.3247733
000050 99 fe 64 3f 2c eb 04 3f b2 0b 38 3f 44 f6 1f 3f
       0.89450985 0.51921344 0.71892846 0.62485147
000060 ff b0 0e 3f 9a 62 21 3f f0 09 3c 3f 41 6c 83 ba
       0.55738825 0.6304108 0.73452663 -0.0010026769
000070 8d b0 3c 3e 08 22 11 3f 00 e4 d6 3e d3 31 ef 3e
       0.18426724 0.5669255 0.41970825 0.467177
000080 d4 cc 0c 3f 62 4a 6a 3f ce 35 1f 3f c7 b6 0d 3f
       0.5500004 0.9151975 0.62191474 0.5535702
000090 27 52 45 3f c7 3e 29 3f 44 7f 32 3f 3e c3 1a 3f
       0.7707848 0.66111416 0.6972544 0.60454166
0000a0 d2 73 da 3e 28 a7 48 3f 49 71 1f 3f b9 b6 f3 3e
       0.4266649 0.7838006 0.62282234 0.47600344
0000b0 bc 01 36 3f 7f a9 a2 3e 0e 84 b2 3e c8 7f 03 3f
       0.71096396 0.3176994 0.34866375 0.51366854
0000c0 3b 08 46 3f 28 87 16 3f c1 cc 14 3f ec 20 6c 3f
       0.7735631 0.5879998 0.5812493 0.92237735
0000d0 ae c6 44 3f 64 9b 42 3f 1d b3 fa 3e 92 3b e0 39
       0.7686566 0.7601836 0.48964778 0.00042768993
0000e0 0f f7 92 3f 4a 96 1c 3f cc a0 3e 3f 34 93 0e 3f
       1.1481646 0.6116682 0.74464107 0.55693364
0000f0 57 64 98 3f df aa bc 3e 9f de e8 3e 0e 74 62 3f
       1.1905621 0.36849114 0.45482346 0.88458335
000100 f0 b7 26 3f e6 85 a7 3f 18 49 c4 3e a2 f2 32 3f
       0.65124416 1.3087738 0.38337016 0.6990148
000110 d0 6b 93 3f 9b dc 67 3f a5 2a a4 3e 89 c7 33 3f
       1.1517277 0.9057099 0.32063785 0.7022634
000120 a0 36 80 3f 5c 3f ac 3e 31 04 21 3f f5 55 be 3e
       1.001667 0.3364209 0.6289702 0.37174955
000130 c5 f8 02 3f cf c6 d5 3e f7 d7 f8 3e 33 31 1f 3f
       0.5116084 0.4175324 0.48602268 0.6218445
000140 4e 74 51 3f 55 80 41 3f 20 f3 6f 3f b0 23 07 3f
       0.8181809 0.75586444 0.93730354 0.5278883
000150 3c 05 0e 3f 2e 42 bc 3e e9 b4 3b ba bd 40 0b 3f
       0.5547674 0.3676924 -0.00071604416 0.5439566
000160 49 dd 18 3f 8a 18 f9 3e 02 de 99 3f 96 c4 c7 3e
       0.59712654 0.48651534 1.2020876 0.3901717
000170 ed 93 e5 3e 68 c9 a0 3f 99 c9 12 3f 86 2c c2 3f
       0.4483942 1.2561464 0.57338864 1.5169837
000180 c4 8d 07 3f a3 41 48 3f d8 e7 e3 3f 97 35 4f 3f
       0.5295069 0.78225154 1.7805128 0.80941147
000190 b2 b3 1a 3f 97 7f 58 3e 25 9c 13 3f 5f 65 58 3f
       0.60430443 0.21142422 0.5766013 0.8452968
0001a0 f8 f4 a9 3f d8 87 27 3f de 97 32 3f 1e da bb 3e
       1.3277884 0.65441656 0.6976298 0.36689848
0001b0 e7 ee 3c 3f 63 00 2d 3f 34 79 45 3f 5d ce 1a 3f
       0.73802036 0.67578715 0.77138066 0.60471135
0001c0 f3 57 88 3b a6 cd 13 3f 34 94 1f 3f 88 cb 2d 3f
       0.004160875 0.5773567 0.62335515 0.6788869
0001d0 51 2d 2b 3f 5b a4 2e 3f de 8b 9a 3f 77 31 33 3f
       0.6686602 0.68219537 1.2073934 0.6999735
0001e0 9a e6 89 3f fa 0d 1f 3f fa 1d 09 3f d2 83 1d 3f
       1.0773499 0.621307 0.53561366 0.61529267
0001f0 a5 90 05 3f 84 ff 32 3f 98 42 10 3f 09 60 a2 3e
       0.52173835 0.69921136 0.56351614 0.31713894
000200 8b 02 4b 3f f2 59 20 3f aa 59 9d 3e bb c5 34 3f
       0.79300755 0.62637246 0.3073247 0.7061421
000210 7d de ba 3e 89 bd bf 3e cc 3f 96 3e 4b 7c 7a 3f
       0.3649787 0.3744929 0.29345548 0.97845906
000220 bd e9 e9 3e ef 18 33 3f 7d f6 04 3f 12 8e f4 3e
       0.4568614 0.6995992 0.5193861 0.4776464
000230 2b 23 82 3e f2 49 a8 3e 85 c2 47 3f a8 75 bc 3e
       0.25417456 0.32868916 0.7803119 0.36808515
000240 8c a5 f1 3e 8f 8b 21 3f c2 1b 73 3f 15 1c 18 3f
       0.47196615 0.63103575 0.9496423 0.5941785
000250 9b 5d 3e 3f 79 de 24 3f 96 7a 6d 3f da 3a 22 3f
       0.7436158 0.64401966 0.92765176 0.6337105
000260 31 dd a0 3f 09 72 10 3f cf 32 95 3e e9 db 5d 3f
       1.2567502 0.56424004 0.29140326 0.8666368
000270 34 0d 31 3f 56 cc d2 3e 3c eb d8 3e af a4 60 3f
       0.6916077 0.4117152 0.4236697 0.8775129
000280 d7 37 15 3f 37 78 e9 3e fe c6 7e 3f 42 44 c0 3e
       0.5828833 0.4559953 0.9952239 0.37552077
000290 72 0d 18 3f aa a2 36 3f b2 f1 09 3f 86 f5 0a 3f
       0.59395516 0.71341956 0.5388442 0.5428089
0002a0 58 38 88 3b 6d 19 55 3f 19 3d 0e 3f 87 3c 0b 3f
       0.0041571073 0.8324192 0.5556198 0.5438923
0002b0 0e 03 c8 3e 3b 82 70 3f fe 8b bd 3f cd df 8c 3f
       0.3906483 0.93948716 1.4808347 1.1005799
0002c0 19 26 18 3f 7a db 0d 3f 93 6f d1 3e 26 5f 55 3f
       0.5943313 0.5541302 0.40905437 0.8334831
0002d0 d4 26 13 3f 95 7e 33 3f 5e 5f d3 3e 79 51 07 3f
       0.5748112 0.70115024 0.41283697 0.5285869
0002e0 5d 9f 40 3f b8 62 06 3f 6d 4d 01 3f 7c 5e 5f 3f
       0.7524317 0.5249438 0.5050877 0.87253547
0002f0 88 65 42 3f 21 4a 30 3f 8f db 15 3f 19 44 93 3f
       0.75936174 0.6886311 0.58538145 1.1505157
000300 01 f6 08 3f e8 69 03 3f 9e 5b 85 3f 1c 83 c0 3e
       0.5350037 0.51333475 1.0418584 0.3760003
000310 36 5d 3c 3f 40 14 e7 3e 0c a8 30 3f c1 45 1c 3f
       0.7357973 0.45132637 0.6900642 0.61043936
000320 c0 85 08 3f 9d e6 57 3f 58 37 24 3f e7 31 15 3f
       0.53329086 0.8433626 0.6414695 0.5827927
000330 9b 0a 0a bb 63 64 07 3f 72 e4 88 3e b8 8a 55 3f
       -0.002106345 0.5288755 0.2673679 0.83414793
000340 ea b4 3b 3f 6a 76 32 3f 10 2c 5f 3f 8f e9 39 3f
       0.7332293 0.69711936 0.8717661 0.7262201
000350 17 5d 08 3f 4a a1 ed 3e d2 de 6a 3f b1 10 dd 3e
       0.53267044 0.46412116 0.91746247 0.43176797
000360 af 40 8c 3f 1e ca f1 3e d1 64 3d 3f 7f 99 05 3f
       1.095724 0.47224516 0.7398196 0.5218734
000370 f7 57 a6 3e 2f 1f dc 3e 54 06 dd 3e 08 0c 71 3e
       0.32488987 0.4299254 0.4316889 0.23539746
000380 2b e3 1d 3f 19 d6 64 3f 3c 18 4a 3f a4 de 3c 3f
       0.61674756 0.8938919 0.7894323 0.7377722
000390 19 aa 93 3f ce 27 56 3f fc 77 3e 3f 73 ae 65 3f
       1.1536285 0.8365449 0.7440183 0.89719313
0003a0 6b 2f 20 3f 55 b5 05 3f 5a 57 6b 3f fb a1 91 3f
       0.62572354 0.52229816 0.9193016 1.1377558
0003b0 17 50 e4 3e 18 4e fb 3e dc 70 f9 3e 66 c5 0f 3f
       0.44592354 0.49083018 0.48718917 0.5616058
0003c0 7d 84 47 3f 58 14 1e 3f cb c4 bc 3e f6 85 f8 3e
       0.77936536 0.6174979 0.3686889 0.48539704
0003d0 36 b0 38 3f 64 21 5b 3f 3a dc 80 3e f2 72 d2 3e
       0.72143877 0.85597825 0.2516802 0.4110332
0003e0 f6 b8 36 3f ce 0f 04 3f 3c 31 51 3f 1a 74 c5 3e
       0.7137598 0.51586616 0.8171575 0.3856514
0003f0 d5 4b cc 3e 87 40 4a 3b 61 59 1e 3f 2b d3 b6 3e
       0.39901605 0.0030861215 0.6185513 0.35707983

bn1.bias f4 [400]
000000 86 53 6d be c3 06 c9 be a4 a0 13 bf 53 e2 99 bd
       -0.23176393 -0.3926297 -0.57666993 -0.07513871
000010 cc 77 00 bf f6 86 fa be b9 2c 0e bf ec d4 d6 be
       -0.50182796 -0.48931092 -0.5553699 -0.41959321
000020 ac 41 2f bf e5 9d 3a bf d1 47 0f bf 01 15 18 bf
       -0.6845958 -0.7289718 -0.5596896 -0.5940705
000030 6b 5c 02 bf 44 ef da be e3 43 bb be cd 23 3d bc
       -0.5092227 -0.4276067 -0.3657523 -0.01154418
000040 10 fb fc be 89 89 7f be ac 21 b6 be 7c 47 39 be
       -0.49410295 -0.24954809 -0.35572565 -0.18093675
000050 9f a6 3b bf e7 18 06 bf e4 fb e0 be 32 17 82 be
       -0.7330112 -0.5238175 -0.43942177 -0.25408322
000060 ca 34 8b be a5 7e 0c bf 39 b5 87 be 32 16 d7 bb
       -0.27188712 -0.54880744 -0.2650545 -0.006563925
000070 01 fa 1f be 2c 5d f4 be 86 e6 d0 be 42 5a 66 be
       -0.15622713 -0.47727334 -0.40800875 -0.22495368
000080 a7 9b 12 bf 22 03 04 bf cc 6f bc be 87 0a 01 bf
       -0.57268757 -0.5156728 -0.36804044 -0.5040669
000090 34 20 46 bf 4d 63 ab be 96 2f f0 be 81 60 13 be
       -0.7739289 -0.33474198 -0.46911305 -0.14392282
0000a0 ed 5f 1a bf cf ef ff be 68 a5 07 bf ff 6d 97 be
       -0.6030262 -0.49987647 -0.52986765 -0.29576108
0000b0 c0 5a 6d be 2a 1a 30 be 31 9f be 3c 55 ae c2 3d
       -0.2317915 -0.17197481 0.023269268 0.095059074
0000c0 90 3f 4f be a6 35 10 bf a5 6b d2 be 9a fb 56 bf
       -0.20239091 -0.5633186 -0.4109775 -0.83977664
0000d0 09 e3 22 bf 8c bc 3e bf f5 5f dc be 31 50 63 bc
       -0.6362768 -0.7450645 -0.4304196 -0.0138741
0000e0 3b 1c dc be 67 29 96 be 91 b6 f1 be e9 5e 77 be
       -0.42990288 -0.29328462 -0.472096 -0.24157299
0000f0 f8 66 f1 be 3f d1 d2 be 2e 85 c1 be 9d a5 0f bf
       -0.4714887 -0.41175267 -0.3779692 -0.5611208
000100 08 1e db be e0 0a e6 be 9a 63 d5 be 3f 61 ea be
       -0.4279635 -0.44930172 -0.41677552 -0.45777318
000110 c8 8b 45 be 51 c8 4e be 60 bb a2 be c8 e4 0d bf
       -0.19291604 -0.20193602 -0.3178358 -0.5542722
000120 3d 32 35 bf 63 72 b0 be cf 32 04 bf 7a 4c ab be
       -0.7077978 -0.3446227 -0.5164003 -0.33456784
000130 c4 33 d6 be ce eb ce be ec 04 a8 be 64 f2 c2 be
       -0.4183637 -0.4041428 -0.32816255 -0.38075554
000140 f5 f6 54 bf e2 55 f3 be 9c f0 bc be e1 13 03 bf
       -0.83189327 -0.4752646 -0.3690232 -0.5120221
000150 19 2a 13 bf fb 2e d6 be b4 85 fe bb f1 7d bc be
       -0.5748611 -0.41832718 -0.0077674035 -0.36814836
000160 41 bb 23 be e6 1f 30 bf d7 a8 08 bf 0a b1 7c be
       -0.159894 -0.68798673 -0.5338263 -0.2467691
000170 69 a2 9f be 72 78 d4 be 2a 2b 11 bf 76 ab 32 bf
       -0.31178597 -0.41498142 -0.5670649 -0.6979288
000180 9e d2 74 be cc 12 80 be 2b 2b 0c bf 47 97 bf be
       -0.23908469 -0.2501434 -0.5475337 -0.37420103
000190 9e 11 d7 be 4e cc 04 bf c1 b0 35 be 36 d0 ab bd
       -0.42005628 -0.51874244 -0.17743208 -0.083893225
0001a0 ff 68 2b be 1a 9d 3b bf 40 3d 1b bf c1 b6 5f be
       -0.16739272 -0.7328659 -0.60640335 -0.21847059
0001b0 5e b6 a4 be ee b9 86 3d e7 32 2c bf 6c 73 0a bf
       -0.32170385 0.06578432 -0.6726517 -0.5408237
0001c0 94 e2 ab bc c5 20 53 be 0e 6f 84 be 2f 0f 2e bf
       -0.020982064 -0.2061797 -0.25865978 -0.6799192
0001d0 75 fe b1 be ef 99 0e bf 59 74 31 bf 11 00 a7 be
       -0.34764448 -0.55703634 -0.6931816 -0.32617238
0001e0 0d a8 32 bf 22 84 d4 bd 08 2e da be d5 44 2f 3e
       -0.69787675 -0.10376765 -0.42613244 0.17116101
0001f0 6e ee a0 be 5c 5e 0c bf a7 35 18 bf cd 76 83 bd
       -0.31431907 -0.5483148 -0.59456867 -0.06419144
000200 e2 fa 61 3d 78 9b c0 be 9f 5e 7c be de 0e 02 bf
       0.0551709 -0.37618613 -0.2464547 -0.50803936
000210 d5 03 b8 be cc 30 91 be 3b d0 9d be 9f af cb be
       -0.35940424 -0.28357542 -0.3082293 -0.39782426
000220 fd 9b 5b be df c2 4d bf 6c 75 2c bf 63 af 1c bf
       -0.21446224 -0.80375475 -0.6736667 -0.6120512
000230 8a 60 5e be 52 67 3a be af 2c 84 be 9b cd ff be
       -0.21716514 -0.18203476 -0.2581534 -0.49961552
000240 42 f9 f4 be f3 af 00 bf e2 b9 13 bf 9e 92 38 bf
       -0.4784642 -0.5026848 -0.5770551 -0.7209872
000250 e0 64 a4 bb ee de 40 be ae 75 fd be e4 4a b9 be
       -0.005016908 -0.18835041 -0.49503845 -0.3618995
000260 49 6c ee bd 7a 43 e0 be 7b 21 55 be 6b 4f f9 be
       -0.116417475 -0.4380148 -0.20813553 -0.48693404
000270 41 ef 08 be 12 c9 5d be 02 b7 85 be e7 cf 22 bf
       -0.13372518 -0.21658733 -0.26116186 -0.63598484
000280 97 a7 16 bf 8a b8 c0 be 0e 25 db be 33 3d bd be
       -0.5884947 -0.37640792 -0.42801708 -0.36960754
000290 21 b6 06 be af 08 0b bf 7b 93 17 bf 06 0d f0 be
       -0.13155414 -0.54310125 -0.5920941 -0.46884936
0002a0 35 ff e1 bc a7 cb b8 be c7 4b ae be fb 89 bc 3b
       -0.027587513 -0.36092874 -0.3404219 0.0057537532
0002b0 fd 54 c5 be 52 a8 51 be 10 a6 37 bf 37 70 d5 be
       -0.38541403 -0.20474365 -0.71737766 -0.41687176
0002c0 9a 9a 0f bf 61 40 a1 bd e9 cb 1d bd 5a fd 13 bf
       -0.5609528 -0.078736074 -0.038524542 -0.5780846
0002d0 3c bf 06 bf 17 c8 b4 be a1 12 ca be f1 7e ab be
       -0.5263555 -0.35308906 -0.39467338 -0.33495286
0002e0 8a 66 85 be a0 af b4 be 18 6d b2 be 5f 53 4a be
       -0.26054794 -0.3529024 -0.34848857 -0.19758366
0002f0 a2 6b c6 be 27 7e 1b bf 29 47 c9 be ae b9 32 bf
       -0.38753992 -0.6073937 -0.39312103 -0.69814575
000300 b3 72 ce be b7 2c 31 be 5d 3e fd be 77 ec d8 be
       -0.40321884 -0.17302214 -0.49461642 -0.42367908
000310 d5 65 07 bf 82 f7 a1 be a2 cb ac be 13 3d 5c be
       -0.5288976 -0.31634146 -0.3374911 -0.21507673
000320 0e f8 c9 be 9b 0c 41 bf 5e ef cb be 59 0d 01 bf
       -0.39447063 -0.7540986 -0.3983106 -0.5041099
000330 e5 46 0b bd b0 44 66 be 29 15 9c be f6 c6 37 bf
       -0.034003157 -0.2248714 -0.30484894 -0.71787965
000340 0f a6 08 bf fc 87 93 be b8 3f 16 bf df 1b 3a bf
       -0.53378385 -0.28814685 -0.5869098 -0.7269878
000350 68 2b 87 be 52 f2 00 bf 48 8d 12 bf 24 56 b2 be
       -0.26400304 -0.5036975 -0.5724683 -0.34831345
000360 1f 5a aa be 42 b0 fa be 8d 28 3e bf 6d 56 cb be
       -0.33271882 -0.489626 -0.74280626 -0.39714375
000370 b7 c2 8d be 42 30 99 be c7 ba 5e 3e 2d d1 8e be
       -0.27687618 -0.2991963 0.21750937 -0.27893963
000380 05 6b a1 be e6 97 18 bf 17 75 78 be d5 28 cb be
       -0.31526962 -0.5960678 -0.24263416 -0.3967959
000390 e1 49 f6 be 25 80 71 bf d3 9b 28 bf 48 3d 14 bf
       -0.4810324 -0.9433616 -0.6586277 -0.5790601
0003a0 19 da 2b bf 00 c8 8e be a3 64 1a bf fd 7f fc be
       -0.67129666 -0.27886963 -0.6030981 -0.49316397
0003b0 f4 76 b3 be ce bb db be e8 d9 09 bf c7 f7 a6 be
       -0.35051692 -0.4291672 -0.53848124 -0.32610914
0003c0 74 3d 0b bf 85 fa 12 bf ff b9 4a be 28 34 1f bf
       -0.54390645 -0.5741351 -0.19797514 -0.6218896
0003d0 de f1 eb bd 8d 47 2a bf 80 8c 9a be c5 13 47 be
       -0.11520742 -0.6651543 -0.30185318 -0.19441135
0003e0 ee f8 e9 be 86 9f fb be 5a 6f 44 bc d6 62 ca be
       -0.4569773 -0.49145144 -0.011989439 -0.3952853
0003f0 31 a8 ea be 4f c2 2c bd c8 1b 0f bf e7 5c c3 be
       -0.45831445 -0.042177495 -0.55901766 -0.38156816

bn1.running_mean f4 [400]
000000 41 b4 15 c0 88 4c c8 bf cd 67 e0 3f 28 50 c4 bf
       -2.3391268 -1.5648355 1.7531677 -1.5336962
000010 cf 9b eb bf 02 f8 3e 3f 2f 36 19 c0 22 a5 d6 bf
       -1.8406924 0.7459718 -2.393932 -1.6769145
000020 a7 ff 92 bf 15 5e 0c bf 17 d6 db bf 71 ef 40 3d
       -1.1484269 -0.5483106 -1.717471 0.04710335
000030 de b4 65 bf 0d 4f eb 3e 36 d4 b6 3e f4 05 1b be
       -0.89729106 0.45958748 0.3570878 -0.1513899
000040 65 b1 5c be ad f1 84 3f fb 38 2d 3f f4 c6 bf 3f
       -0.21552046 1.0386254 0.6766507 1.4982591
000050 37 7f 69 be 04 8d 86 bf 16 8c 58 3e 01 1e 24 bf
       -0.22802435 -1.0511785 0.21147189 -0.6410828
000060 76 9b 63 3f f7 fc 94 3e e5 b1 e5 bf 87 69 68 be
       0.8890909 0.29099247 -1.7944914 -0.22696505
000070 fb 90 6d be 88 30 7b bf f3 17 2b 3f 14 ca 49 3f
       -0.23199837 -0.9812093 0.6683342 0.7882397
000080 51 70 42 3f 55 b7 9f bf de 4c 76 be e5 35 b4 3f
       0.7595263 -1.2477823 -0.2405276 1.4078947
000090 c6 d9 c2 3f e6 f6 ee bf 67 38 bc 3e a1 77 07 bf
       1.5222709 -1.8669097 0.36761782 -0.52916914
0000a0 e9 34 94 bf 89 81 97 bf dd 84 01 c0 ee 46 00 40
       -1.1578647 -1.1836406 -2.0237343 2.0043292
0000b0 17 6f 8d 3d 8a f9 6e 3e b6 b3 c8 3f cc a2 14 40
       0.06905954 0.23337379 1.5679843 2.3224363
0000c0 90 a4 17 3e b7 aa 14 be f3 d6 2f 3f 16 dc a3 bf
       0.1480887 -0.14518248 0.6868736 -1.280154
0000d0 9c aa b7 bf 85 f0 5c bf dd a2 d1 3f 28 d8 07 be
       -1.4348941 -0.86304504 1.6377827 -0.13266051
0000e0 87 41 66 bf b7 07 13 3f 48 45 3b 3e c3 62 4e 3f
       -0.89943737 0.57433647 0.18288147 0.8061945
0000f0 b8 a4 c3 3e f7 e7 42 bf 39 37 73 be 39 e9 f2 be
       0.38211608 -0.761352 -0.23751535 -0.4744356
000100 40 2e c6 3f 8b 87 9c 3e 40 06 90 3d cf 8a c8 be
       1.5482864 0.3057216 0.07032442 -0.39168403
000110 57 eb b4 3f 07 3e 25 be 4a b0 b7 3f 42 1c 8b be
       1.413432 -0.16136943 1.4350674 -0.27169997
000120 17 b3 91 bf 69 1d 1d bd 9e 63 6e 3f 7a d9 6f bf
       -1.1382779 -0.038358126 0.93120754 -0.9369122
000130 7a 38 a1 3f 5e 6a 37 be 1d 30 e0 bf 69 0e 64 3f
       1.259536 -0.1791167 -1.7514683 0.8908449
000140 96 93 a0 bf e3 05 ee bf 46 7d 6c 3f e1 57 8d 3f
       -1.254504 -1.8595546 0.9237865 1.1042444
000150 2d 0b 0e c0 48 02 0c 3f fe 4b ca 3d 49 80 1c 40
       -2.219432 0.5469098 0.098777756 2.44533
000160 ce 07 2a 3f 8d eb 0a 3f f7 8d b1 bd 1a d6 2f 3f
       0.6641816 0.5426567 -0.08669656 0.6868607
000170 de 59 af bf a3 03 7f 3f 75 2a aa bf e5 39 bc 3c
       -1.36993 0.99614924 -1.3294207 0.022976825
000180 fd 51 5a be f2 69 48 3f 57 10 4f 3e 26 fb a1 3e
       -0.21320339 0.7828666 0.20221077 0.31636924
000190 de 6c 94 3f d2 1c 0a 40 c7 f2 51 3f 71 a5 0c bd
       1.1595724 2.158009 0.82011074 -0.034337465
0001a0 e3 4c f5 3e 6d 60 16 bf 00 ec 16 c0 2c 5e db 3e
       0.47910222 -0.58740884 -2.3581543 0.42845285
0001b0 0c 8c db 3f 86 15 c6 3f e8 be e8 bf bd 2a a5 bf
       1.7152114 1.5475318 -1.818326 -1.2903668
0001c0 0d fe 6a 3e ca 5b 80 be 04 2b fe be 9f aa e5 3e
       0.22948475 -0.2507003 -0.49642193 0.44856736
0001d0 f3 c5 ce 3e c8 dc ea bf 31 d7 4f bf b1 9d a7 bf
       0.40385398 -1.8348627 -0.8118773 -1.3094999
0001e0 73 5b 2e 3e 1e 9f 5a 3d eb 13 01 40 8c 2a 05 40
       0.17027073 0.053374402 2.0168407 2.0807219
0001f0 37 5f 55 c0 69 ce 8d 3e 91 22 2e c0 9b b5 58 3f
       -3.3339365 0.2769654 -2.7208598 0.8465211
000200 d9 14 17 3f 68 d8 11 3f a0 67 86 3f eb 65 d7 3f
       0.59016186 0.56970835 1.0500374 1.6827978
000210 57 50 5a bf b0 68 63 bd c1 97 98 3f ae 69 4c 3e
       -0.8527884 -0.05551976 1.1921312 0.19962189
000220 49 40 f2 3f dc 7d 88 bf 70 d8 75 bf b4 11 f9 be
       1.8925868 -1.0663409 -0.9603338 -0.4864632
000230 06 ea f1 3f c7 da 23 3f 4b 9b 52 be d6 34 3e c0
       1.8899543 0.640057 -0.20567052 -2.9719748
000240 5c e0 c1 3f 28 d9 99 bf 9c 3b dc bf 63 fe fa bf
       1.5146594 -1.2019396 -1.7205691 -1.9608883
000250 76 68 14 40 8b 26 7a 3d f2 62 2a 3f 5a a4 c8 be
       2.3188758 0.061071914 0.6655723 -0.3918789
000260 88 2a 0b 3b d5 27 cd 3f 09 02 e6 3e 55 67 69 be
       0.0021235067 1.6027781 0.44923428 -0.22793324
000270 06 90 d9 3e 34 e7 65 3f e5 01 3c 3f e8 f8 40 3f
       0.42492694 0.8980591 0.7344039 0.753798
000280 80 cd bb bf 65 72 f6 bf 9d 10 59 bf f5 d5 0c c0
       -1.4672089 -1.925366 -0.84790975 -2.200559
000290 89 a3 de be 74 d8 8b be 56 86 31 bf d7 82 21 c0
       -0.43484142 -0.27313578 -0.69345605 -2.5236108
0002a0 a3 36 31 be 82 6b 2b bf 34 94 a9 bf f0 1b 5e 3d
       -0.17305999 -0.6696092 -1.3248353 0.054225862
0002b0 21 36 b6 3e 9b aa 8a be bc f3 32 bf c9 02 46 be
       0.35588172 -0.27083287 -0.6990316 -0.19337
0002c0 d8 2d 5b c0 43 17 be 3d 0f 81 b6 3f cb f6 02 c0
       -3.424673 0.092817806 1.4258136 -2.046313
0002d0 88 72 91 be d3 3c 79 3f b4 cc b5 bf ba 8c 35 3e
       -0.28407693 0.97358435 -1.4203095 0.17729464
0002e0 8d 42 b4 bf c0 22 35 3f 40 69 36 3f d4 7f 41 3f
       -1.408281 0.7075615 0.7125435 0.75585675
0002f0 ab d2 3c 3e 02 81 78 be 83 82 e6 be 96 15 84 be
       0.18439738 -0.24267963 -0.45021448 -0.2579772
000300 33 e5 0e c0 c5 52 21 3f 16 fc b1 3e 71 db f0 3e
       -2.2327392 0.6301692 0.3476264 0.4704242
000310 71 14 6b bf 91 c1 80 bf 3e 31 1b bf 16 49 72 3f
       -0.91828066 -1.0059072 -0.6062201 0.9464277
000320 d2 64 bb bf c4 ce d9 3e dd ea ca bf 41 b2 9c 3e
       -1.4640143 0.42540562 -1.5852925 0.30604747
000330 e7 36 cd bd 19 50 04 3e 36 b5 a1 be d5 86 01 bf
       -0.100202374 0.1292118 -0.31583565 -0.5059636
000340 b6 dc a6 be 76 c0 5b 3e ff 47 4e 3f b4 3c 01 3f
       -0.32590264 0.21460137 0.8057861 0.5048325
000350 5c 4f 60 3e 13 9b f7 be 4b fc df 3e 74 0b cc be
       0.21905273 -0.483605 0.43747172 -0.39852488
000360 77 5f 71 bf db 83 42 bf fd 31 8b be f1 d4 15 bf
       -0.9428629 -0.75982445 -0.27186576 -0.5852805
000370 c0 46 d3 be 70 c7 5a bf 32 12 15 40 13 8f 76 3f
       -0.41264915 -0.8546057 2.3292356 0.96312064
000380 c3 81 51 bf 5a 9d 8d bf 37 f5 05 bf bc c8 e8 be
       -0.81838626 -1.1063645 -0.52327293 -0.45465648
000390 fb 3b 07 be 2f 83 3d bf 30 7d 38 3d 42 b5 9b bf
       -0.13206474 -0.74028295 0.045041263 -1.216469
0003a0 d3 37 87 3f 98 5f 35 3f da ed 5a 3f 97 94 c1 be
       1.0563911 0.7084899 0.8551918 -0.37808678
0003b0 9d 5d 14 bf 01 21 73 bf 92 82 f6 bf 20 ff 02 bf
       -0.5795534 -0.94972235 -1.9258597 -0.5117054
0003c0 9d a2 36 3f fa 8a ba 3e 4b fc 99 bf b2 4b 47 c0
       0.7134188 0.36434156 -1.2030119 -3.113995
0003d0 d5 b7 20 bf 39 e7 90 bf 32 9e 8a 3f 6a 31 1b 3e
       -0.62780505 -1.1320564 1.0829527 0.15155569
0003e0 4d c4 ea bd 05 dd eb 3e b3 b1 d9 3f 3c 05 36 3d
       -0.11463223 0.46067062 1.7007354 0.044438586
0003f0 37 cd dc be 45 bd 1f be d7 91 19 c0 23 45 43 3f
       -0.43125317 -0.15599544 -2.3995264 0.7627737

bn1.running_var f4 [400]
000000 4c 57 e1 41 a4 8b ec 3f 47 53 ff 40 d0 14 7f 3f
       28.167625 1.8480115 7.9789157 0.9964113
000010 f9 a0 f1 40 1d 5b d0 40 26 de 73 40 46 d5 0c 40
       7.5509 6.511122 3.8104339 2.2005172
000020 34 b4 c2 40 e4 88 ec 3f 73 5a 45 40 bc dd 14 3f
       6.0844975 1.8479276 3.0836456 0.5815084
000030 1b d2 9f 40 6a 1f a3 3f e9 42 85 3f 9a 93 d8 3f
       4.9943976 1.2743962 1.0411044 1.6920044
000040 24 8f f7 40 61 3a 6f 40 ce e1 57 40 be 1a 77 41
       7.736223 3.7379382 3.373157 15.444029
000050 dc 0d 96 40 ab 59 a6 40 6e ab 92 3f a0 3a 88 3f
       4.689192 5.198446 1.1458566 1.0642891
000060 a4 3d 02 40 70 8a 70 40 5f 7c 0e 40 a3 99 84 3d
       2.0350122 3.7584496 2.226341 0.064746164
000070 1a cf 4a 40 d9 76 49 40 06 c1 86 40 ca 01 a2 40
       3.1688905 3.147879 4.2110624 5.0627184
000080 5b 3e 9a 40 3f 59 92 3f 8c b9 13 40 46 0f 69 40
       4.8201118 1.1433486 2.3082 3.6415572
000090 e4 07 35 40 73 8d 40 40 f0 d9 2b 40 96 4e 94 3f
       2.8286066 3.0086334 2.6851768 1.1586483
0000a0 88 0d 42 40 6d 64 d4 40 2d 16 83 3f 6c b0 8d 40
       3.032076 6.637259 1.0241143 4.427786
0000b0 aa ad 47 40 00 96 09 40 aa f6 94 40 d4 8a 88 40
       3.1199746 2.1497803 4.6551104 4.266947
0000c0 da c4 c1 40 f5 be 22 40 b3 d0 61 40 d8 90 81 40
       6.0552797 2.542905 3.528363 4.048931
0000d0 9e 9f 2f 40 e1 46 c5 40 e1 0c 65 40 39 90 1f 3e
       2.7441173 6.164902 3.578911 0.1558236
0000e0 e8 5d 26 3f e4 83 30 40 ed 12 6e 40 42 92 a6 40
       0.6498704 2.75805 3.7199051 5.2053537
0000f0 8e e2 5e 3f 42 1c bf 40 de dc 47 40 29 d5 8d 3f
       0.87064445 5.9721994 3.1228557 1.1080676
000100 f8 00 95 40 02 4a de 3f db 31 17 41 43 fd 00 40
       4.6563683 1.7366335 9.449672 2.0154579
000110 4d 53 a6 3f 31 88 33 40 88 36 be 40 38 75 c8 40
       1.2994171 2.8051875 5.9441566 6.264309
000120 49 dd a3 3f b4 46 a5 41 af 05 21 41 f3 fc 48 40
       1.2801906 20.659523 10.063888 3.1404388
000130 fb ca 29 3f 54 ed 3a 40 63 a7 17 40 66 68 03 41
       0.6632535 2.9207354 2.3695915 8.212988
000140 ed 37 9f 40 ce 63 7a 40 79 89 2a 40 5a 9e 07 40
       4.975577 3.9123416 2.6646407 2.11904
000150 6f 19 24 40 4c 77 3b 40 25 38 d9 3d 2c f8 5b 41
       2.5640523 2.9291563 0.10606412 13.748089
000160 0a 23 17 41 6f c4 97 40 1b f3 ce 3f de 08 4a 40
       9.446054 4.7427287 1.616794 3.1567912
000170 0c b7 ff 3f a7 09 39 40 d6 35 5d 40 3d 55 2b 40
       1.9977736 2.8912141 3.456411 2.6770775
000180 ea 50 a8 40 23 f6 8c 40 82 60 53 3e 93 4b 5a 40
       5.259877 4.405046 0.20642284 3.4108627
000190 c9 b6 28 41 a5 d9 2d 40 c7 a3 19 40 91 7e 24 40
       10.544625 2.716409 2.4006212 2.570225
0001a0 5a 8e fc 3f 09 10 85 40 0e 59 18 40 b5 48 a2 40
       1.9730942 4.1582074 2.3804355 5.0713754
0001b0 9e 2a 29 41 e9 6c 3a 41 f6 11 eb 40 c9 42 99 40
       10.572905 11.651589 7.3459425 4.7894025
0001c0 ad 6c 93 3e 0e 2a d8 3f 38 58 91 3f 79 3d f3 3f
       0.2879385 1.6887834 1.1355047 1.9003135
0001d0 4f fd 26 40 2a 2c c5 40 6d 36 ca 3f c1 39 29 40
       2.6092107 6.161641 1.579786 2.64415
0001e0 15 e8 f7 3f 5d a8 97 40 fe 5d 72 40 d1 bc c9 41
       1.9367701 4.739302 3.7869868 25.217196
0001f0 d9 a0 30 40 06 2f c1 3f 27 dd d3 3f 47 d7 46 40
       2.7598174 1.5092475 1.6551865 3.1068895
000200 be 87 d2 40 1c 00 6a 40 d6 88 4c 40 9f 5e 12 40
       6.57907 3.6562567 3.1958518 2.2870252
000210 bc 19 87 40 f7 26 88 40 0d 90 14 40 92 0c dc 3f
       4.2218914 4.2547565 2.3212922 1.7191336
000220 21 9d 3f 40 fe 5c 97 3f 5a 2b 12 40 b5 97 75 40
       2.9939654 1.1825254 2.283896 3.8373845
000230 ad 39 8e 40 01 12 23 41 6f cc bc 3f 43 4b b3 3f
       4.4445405 10.1918955 1.4749888 1.4007343
000240 96 db 4c 40 d9 a0 cc 40 aa 88 1e 40 4e 9e 9d 40
       3.2009025 6.3946347 2.4770913 4.9255743
000250 02 72 1f 40 aa 8c 81 3f ee 0a 11 40 48 09 3e 40
       2.4913335 1.0121052 2.266292 2.9693165
000260 fb d9 35 3f 0f 9f c1 40 0d 77 18 40 31 7c 80 3f
       0.71035737 6.0506663 2.3822663 1.00379
000270 1d 8c 0f 40 64 36 ee 3f d9 b0 82 41 e0 8c 1d 40
       2.2429268 1.8610349 16.336351 2.4617233
000280 b4 08 70 40 bf 38 0b 40 b5 d7 d7 3f bb c2 10 40
       3.7505312 2.1753385 1.6862704 2.2618854
000290 17 94 35 40 1b 97 85 40 07 52 18 41 65 b3 84 40
       2.8371637 4.1746955 9.520026 4.1468987
0002a0 d5 c0 85 3d 6c a9 8b 3f cf 07 d2 3f 51 6f 72 40
       0.065309204 1.0911078 1.6408633 3.7880442
0002b0 97 93 ec 40 49 23 a0 3f 1f c8 fb 3f eb d3 90 40
       7.3930163 1.2510768 1.9670447 4.525869
0002c0 7e 95 23 40 5e ee 1f 41 39 78 37 41 d2 c0 28 40
       2.5559993 9.995695 11.466851 2.6367688
0002d0 e3 3d 63 40 58 ae 98 40 8f 9f 65 41 92 2e 49 40
       3.5506523 4.771282 14.351455 3.1434674
0002e0 18 83 ba 3f c3 92 a8 3f ec e4 68 3f 18 0e f9 3f
       1.4571257 1.3169788 0.9097431 1.9457426
0002f0 19 d4 ad 3f 2c ec af 40 5c 01 34 40 7c 28 16 40
       1.3580352 5.4975796 2.812583 2.346221
000300 cd f0 5f 41 88 90 53 41 04 dd 3d 40 09 5e e1 40
       13.996289 13.222786 2.9666147 7.042729
000310 ec d4 61 3f fe 1a 1c 41 8f 5d 0a 40 f3 8b e4 3f
       0.8821552 9.75659 2.1619604 1.7855209
000320 ac fa 5c 3f eb 00 61 40 b7 c9 cd 40 c9 30 ca 40
       0.86319995 3.515681 6.4308734 6.318455
000330 a6 4f 6a 3e 4b 75 9a 40 e8 fb 67 40 d1 7e c6 3f
       0.22881946 4.826818 3.6247501 1.5507451
000340 62 64 35 40 ef 05 12 40 cb 3a 0a 40 64 be 56 40
       2.8342519 2.2816122 2.1598384 3.3553705
000350 79 1b 02 40 5f f7 39 41 29 7f 71 3f 67 93 70 40
       2.0329268 11.622893 0.94334656 3.7589967
000360 a1 66 3f 3f e6 63 a6 40 4f 75 7e 40 dc 15 1f 40
       0.74765974 5.1996946 3.97591 2.4857092
000370 bf 85 40 41 28 98 f7 3f ce e5 78 3f 5c 86 89 41
       12.032653 1.9343309 0.97225654 17.190605
000380 78 ad 43 40 b7 1e ad 40 a3 e5 be 40 4e da 7a 40
       3.0574627 5.4099994 5.965532 3.9195743
000390 d9 5b 5d 40 aa 23 65 41 9b 99 ad 3f c8 55 ff 3f
       3.458731 14.321207 1.3562502 1.9948053
0003a0 f7 13 3d 40 6b 02 05 41 a6 bc b2 3e c2 a0 e6 3f
       2.9543436 8.31309 0.34909552 1.8017809
0003b0 6a 41 4f 40 82 ce 06 40 3d ba 97 40 b3 99 31 40
       3.2383676 2.1063542 4.741484 2.775006
0003c0 a5 e2 58 40 18 75 e4 40 6f 3e 5b 3f da 22 a9 3f
       3.3888333 7.1392937 0.8564214 1.3213761
0003d0 a8 97 0f 40 9d 83 2e 40 e2 42 66 40 ad 58 13 40
       2.2436314 2.726783 3.5978322 2.3022873
0003e0 fa 63 0c 40 ce b3 a7 41 e9 51 02 40 de d9 f7 40
       2.193602 20.962795 2.0362494 7.745345
0003f0 d2 b3 50 40 06 f7 37 3e a7 5f ad 40 75 ad 9d 3f
       3.2609754 0.17965326 5.4179263 1.231856

fc2.weight f4 [300, 400]
000000 b6 97 f9 3e 4a f8 06 3f 4d 69 f0 be a9 6d 6c 3e
       0.4874856 0.5272261 -0.46955338 0.23088707
000010 be bf 7f be 49 fa a4 3e 0c b0 d7 3c 30 bc 96 3d
       -0.24975488 0.32222202 0.026329063 0.07360113
000020 1a 6e 53 be ae 39 1c be 80 87 d7 3e 41 ab 9e 3e
       -0.20647469 -0.15256378 0.42095566 0.3099003
000030 39 64 06 be ea 3d 18 be 4f 5d 97 3a cf e9 e6 3e
       -0.1312417 -0.14867368 0.0011548194 0.45100257
000040 e6 2e 81 be 0a 8f e6 be af d7 56 bf c2 f9 89 be
       -0.25231093 -0.45031005 -0.8392286 -0.26948363
000050 17 be 45 bf ad b1 8b be f2 42 6e be 0b c1 12 bf
       -0.7724318 -0.27283993 -0.23267725 -0.5732581
000060 c5 34 c8 3e ae ff 89 be 28 f8 8b be 7b f7 4b 3d
       0.3910276 -0.2695288 -0.27337766 0.049796563
000070 b3 6b ef 3d ed e2 00 be ae 62 f0 be a1 3d 70 3e
       0.11690464 -0.12586565 -0.46950287 0.2346101
000080 e6 fe 92 3c 4d 9a a5 3e ed ad 13 3f 5f 54 03 3f
       0.01794381 0.32344285 0.57687265 0.51300615
000090 3a 73 53 bf 00 f5 05 3e 83 5a 4f bd 38 58 ab be
       -0.82597697 0.13081741 -0.050623428 -0.33465743
0000a0 2b 5f cb be 3e 65 f6 bd f0 6e 45 3e 4f 8f e1 bd
       -0.39721045 -0.12031029 0.192806 -0.11013662
0000b0 c1 8a 04 3e f0 85 d8 3d 66 3b 0c 3e a3 35 8c 3d
       0.12943555 0.105724216 0.13694534 0.06846168
0000c0 4b 94 d2 be 04 a7 8b bd a4 a6 27 be a0 78 06 3e
       -0.41128764 -0.06818965 -0.16372162 0.13131952
0000d0 0f 07 24 bf 51 2f 35 bf 4e 7d 62 3d 56 19 7e 3c
       -0.6407327 -0.70775324 0.05529528 0.01550897
0000e0 50 76 bb 3e 28 bb e2 be 4e 82 35 bc 2b fd f1 3e
       0.36613703 -0.44283414 -0.01107843 0.47263464
0000f0 5b 29 77 be 68 ae 0a 3e d7 a6 54 bb dc f8 17 bf
       -0.2413687 0.13543093 -0.0032448077 -0.59364104
000100 8a f2 29 3d db 44 9c 3e ca 12 07 3e 64 9b 23 3e
       0.04149107 0.30521283 0.13190761 0.15977246
000110 f6 02 13 3e c6 2a 75 3d 57 61 09 3e 42 84 c5 bd
       0.14356598 0.059855245 0.13416038 -0.09644367
000120 48 65 2c bf 7b c2 92 bd cd 3e 94 3e de 43 19 be
       -0.6734204 -0.071660005 0.28954163 -0.14967296
000130 3c 50 c5 bb 24 f8 af bc 77 53 ba 3e 19 91 c3 be
       -0.0060215276 -0.021480627 0.36391804 -0.38196638
000140 88 be b3 3d 4e ca 0c be 9f 01 8a be e7 26 ec be
       0.08776575 -0.13749048 -0.26954362 -0.4612343
000150 8f ad 66 be d2 1f 7f 3e 7a 69 c2 bc 59 b0 ce be
       -0.22527145 0.24914482 -0.023731936 -0.40368918
000160 ac c3 88 be 98 59 a9 be 2f 40 bc bf 04 75 fb bd
       -0.26711786 -0.33076167 -1.4707087 -0.12278178
000170 49 dd 7d 3e 4e d0 50 be b9 dd 03 be c3 65 8c 3e
       0.24791445 -0.20391962 -0.12877549 0.27421388
000180 99 0f 27 bf 88 6d 1e 3e fc 53 ad be 93 da cf bd
       -0.65258175 0.1547147 -0.33853137 -0.101491116
000190 8e 01 6c 3d d3 0e d5 3d 42 7f 79 3e c1 96 19 be
       0.05761867 0.10403218 0.24364951 -0.14998914
0001a0 fd 5d 09 3e 33 a8 a4 3e c7 80 8c bd 0c 54 a7 be
       0.1341476 0.32159576 -0.068605 -0.3268131
0001b0 f8 2c 62 be e0 69 05 bf 71 ae 7c 3e 17 e2 61 3e
       -0.22087467 -0.5211468 0.24675919 0.22058903
0001c0 27 31 37 bd c1 a8 a7 bc 3f 18 ee 3c c6 d5 15 be
       -0.04472461 -0.02046621 0.029064296 -0.1463233
0001d0 65 c4 2c 3e c9 65 bd be 34 22 d7 be 8a fc 10 bf
       0.16871794 -0.36991718 -0.42018282 -0.56635344
0001e0 86 53 b3 be cf 64 5a 3e 9b f1 fd be 49 0d d9 bd
       -0.3502466 0.21327518 -0.49598393 -0.10598237
0001f0 f3 e5 ee 3e 12 65 95 be 7d e3 e2 3e d4 a8 ce 3d
       0.46659812 -0.29178673 0.44314185 0.10090795
000200 ce 90 ba 3e fe 82 23 bc bc 57 a8 be d1 82 f4 bd
       0.36438602 -0.009979961 -0.32879436 -0.11939014
000210 3f 06 1b be c6 f4 e1 be c3 81 a8 be a5 7e 9b 3d
       -0.15139101 -0.4413206 -0.329115 0.07592515
000220 87 bb d1 3e a1 34 a8 be d0 a6 4f be f6 24 75 3e
       0.40963385 -0.32852653 -0.20278478 0.2393988
000230 dd 90 47 3e 98 d3 0b be 70 04 bf 3c 62 2c ba 3d
       0.19488855 -0.13654935 0.023317546 0.090904966
000240 88 b9 eb be a1 ee e8 be 74 24 05 be 6a 0d f1 bd
       -0.46039987 -0.4549456 -0.13002187 -0.11770137
000250 0d ac 26 bf e9 b1 77 3b ef 19 77 3d 3a 3a 64 be
       -0.6510628 0.0037795252 0.060327467 -0.22287837
000260 dd 60 0d bf 9c 53 8f 3e 44 28 3d 3d 45 d6 27 be
       -0.55225927 0.27993476 0.04618098 -0.16390331
000270 21 fd a1 3d 62 3c c3 3e cf 6f 11 3d 45 b4 3f 3c
       0.07909609 0.38132006 0.03550702 0.011700694
000280 9f 4a ea 3e bc ef ac 3e 9e 47 83 be b4 e6 08 3e
       0.45760056 0.33776653 -0.25640577 0.13369256
000290 4b 75 bd be 3c 0a 9a 3e 88 d2 3a 3d 88 b8 fd 3d
       -0.3700355 0.30085933 0.045610934 0.12388712
0002a0 28 76 da 3c 52 db 0e be c0 52 12 3e 35 45 7e 3e
       0.02666767 -0.13950852 0.14289379 0.24831088
0002b0 44 e1 2a 3e 3a e8 20 bf 17 bc 0e bf dd a1 be 3e
       0.16687495 -0.6285435 -0.5575575 0.37232867
0002c0 25 ab e0 3e 2f ca 47 3d 77 2e d1 3e fd 2d 1f bb
       0.43880573 0.0487768 0.40855762 -0.0024288886
0002d0 f7 96 88 3d 30 d0 00 be 04 84 88 3d 52 78 eb be
       0.06669419 -0.12579417 0.06665805 -0.45990235
0002e0 9c f9 1a be 98 fa f6 be ae 92 20 bc 5a 40 12 bf
       -0.15134281 -0.48238063 -0.009800596 -0.5712944
0002f0 71 3e 9d 3e 5c f2 cb bd 89 e2 07 be 5b c3 2c 3e
       0.30711702 -0.09958336 -0.1327001 0.16871397
000300 cf 3e c9 be cb be b6 be 46 21 1d bf cd d9 74 3c
       -0.39305732 -0.35692438 -0.61378896 0.014944506
000310 6b b2 2c be 4e 4a a6 be 75 5e 1a bd 77 e1 6c 3e
       -0.16864936 -0.32478565 -0.037687737 0.23132883
000320 27 88 2f be 63 cd 45 3e 35 26 04 bf f2 4f 51 3e
       -0.17141782 0.1931663 -0.516208 0.20440653
000330 34 bd 50 3d 75 a9 66 bd b4 5c 09 be 2a a9 03 be
       0.05096169 -0.05631395 -0.1341427 -0.128575
000340 86 9c 6b 3e d6 f9 90 bf 28 83 3d bd e6 af ef bd
       0.23008928 -1.1326244 -0.04626766 -0.11703472
000350 c9 bc c5 be 88 09 11 bf b4 04 e9 bd 44 f5 45 3e
       -0.38620594 -0.5665517 -0.1137785 0.19331843
000360 bd d1 39 be 57 98 37 3e af ad 89 be 9c 31 ad 3e
       -0.18146415 0.17929207 -0.26890323 0.3382691
000370 f3 b6 f7 be 14 95 09 bf b4 5a 53 3e cb 1c 09 be
       -0.48381767 -0.537431 0.20640069 -0.1338989
000380 f2 b7 64 3e 0e 97 d4 3e b8 0f 25 bf 74 65 c2 bc
       0.22335795 0.41521496 -0.6447711 -0.023730017
000390 31 67 a1 3e 53 d0 23 3e 83 dc a8 be 31 06 0a be
       0.3152404 0.15997438 -0.32980737 -0.13478924
0003a0 31 17 80 be bb c9 92 be 03 01 1d bf e9 20 20 be
       -0.25017694 -0.28669533 -0.6132967 -0.15637554
0003b0 14 09 d3 bd 57 8d 2a 3d 51 93 2a be 91 69 92 3c
       -0.10304466 0.0416387 -0.16657759 0.017872604
0003c0 77 2c f1 bd 65 22 80 bc 1e c9 69 be 0a 49 88 3e
       -0.11776059 -0.0156414 -0.22830626 0.26618224
0003d0 44 fd 3d be 08 af f0 3c 97 e1 de bd bb ea 90 be
       -0.18553644 0.029380336 -0.108828716 -0.28304085
0003e0 da 36 f0 3d 76 24 37 be 1e e4 df bd 41 a8 ba bc
       0.11729212 -0.17885002 -0.10932182 -0.022785308
0003f0 9b cd 6f 3e e2 8a 66 ba 69 97 1f 3f 2d 64 4a 3d
       0.23418276 -0.0008794499 0.6234041 0.04941194
